results/goalkeeper6/MoveToGoal/MoveToGoal-230519.onnx (onnx, 71863 bytes, 5 tensors)

distribution.mu.weight f4 [1, 128]
000000 bf d5 a6 3a 32 6f 66 3d 08 c8 9b 3c 02 44 ad 3d
       0.0012728496 0.056258388 0.01901628 0.08460237
000010 d4 c8 85 3d 70 9d 5d 3d ca a0 5b 3d 45 db fa 3c
       0.065324455 0.054105222 0.053620137 0.030622134
000020 3f 1b 66 3d f7 8e a3 3b 46 be a7 ba 04 37 eb 3b
       0.056178328 0.004991408 -0.0012797795 0.0071781892
000030 7c 92 53 3c 3e c6 e6 3c f1 8b 33 3d 91 79 87 3c
       0.012913343 0.028170701 0.04383463 0.01653746
000040 4e 1b c9 bb 17 50 42 3d 39 91 bb 3c e8 09 c4 3c
       -0.006137288 0.04743966 0.022896396 0.023930505
000050 a0 f9 0b bd 50 32 61 3d 92 9a 30 3d 30 21 c6 3a
       -0.034173608 0.054979622 0.04311616 0.0015116092
000060 06 82 ab ba 35 ef 21 bd 8e 3b 28 3d f2 47 60 3a
       -0.0013085015 -0.039534766 0.04107242 0.00085556426
000070 1a 09 93 3c 5f f6 3c 3d 7a 8c fd 3c 01 7a ee 3c
       0.017948676 0.046133395 0.030950774 0.02911091
000080 9d 5b 9e bb d9 3a e9 b9 c0 37 80 3d 8e ea 89 3c
       -0.0048326985 -0.00044485068 0.062606335 0.016835477
000090 23 5f a2 3b 39 52 df 3c d7 a8 a2 ba 7a 2b 24 3d
       0.004955189 0.027260887 -0.0012409937 0.040080525
0000a0 62 07 b7 bb db 67 b3 bc 30 d4 83 3c 16 16 32 3d
       -0.005585597 -0.021900108 0.01609239 0.043478094
0000b0 58 1b 00 3a 0f 73 1d 3d 96 99 65 3d c9 4f 98 3d
       0.0004886887 0.038439807 0.056054674 0.07437093
0000c0 7f 74 ae 3d 8b 5c 95 3a e6 7f 1c 3d 6c a8 db 3c
       0.085183136 0.0011395378 0.03820791 0.026813708
0000d0 9e 2a 62 3c 91 5b 59 3d 3b e3 cd 3c 9b fa 27 3d
       0.013804106 0.05306584 0.025132766 0.04101048
0000e0 c4 8e 57 3d 28 29 90 3c e2 2a 2a 3c 3b d7 43 3d
       0.052626386 0.01759775 0.010386201 0.04781268
0000f0 cd 96 ed 3c 30 f3 3c 3c 53 96 6e 3d 64 c2 bf bb
       0.029002571 0.01153259 0.05824883 -0.0058520306
000100 46 ec 26 3d 3c 49 10 3d 17 73 b7 bc 3f e8 4a 3d
       0.04075267 0.03522609 -0.022393746 0.049537893
000110 4a c6 d0 3c 42 49 86 ba b5 06 53 3b 78 1f 15 3c
       0.025485177 -0.0010245221 0.0032200043 0.009101741
000120 91 72 41 bc b1 e5 9c 3c 88 35 34 3d ff 4e 4e 3b
       -0.0118071 0.019152494 0.043996364 0.003148019
000130 a6 47 6d 3c 72 31 a0 3c 75 56 2a bd 34 8c 88 3d
       0.014482414 0.019554827 -0.041586358 0.066673666
000140 33 bf 1d b6 c5 d3 28 3c 4d b7 8e b9 d5 b0 db 3b
       -2.3506116e-06 0.010304396 -0.0002722092 0.0067044296
000150 81 13 cc 3a 42 5c 09 bc 2c a1 ef b8 c0 74 26 ba
       0.0015569777 -0.008383812 -0.00011426429 -0.00063497946
000160 11 01 59 3d c0 56 2b 3d ef 65 65 3d 55 8a a7 3b
       0.052979533 0.041830778 0.056005415 0.005112926
000170 45 ed 04 3d d8 7a 16 3c fd 26 51 ba f3 f3 69 3d
       0.03245284 0.009184562 -0.0007978527 0.057117414
000180 40 2f c3 3c 1a 04 59 3d 9e 9a a1 3c 3e ef d9 bc
       0.023826241 0.052982427 0.019727048 -0.026603337
000190 73 e6 06 3c 82 d6 4b 3d 6d e8 2a 3b c9 2a 80 3b
       0.008233654 0.049765117 0.0026078478 0.0039113504
0001a0 0f 1f 16 3d d3 47 b4 3c 1b 52 b2 39 bc 14 8b 3d
       0.036650714 0.022006905 0.0003401198 0.06791064
0001b0 d6 06 ad 3b cf fb 30 3d d2 1b b5 bb 0c 12 89 3c
       0.005280356 0.043208893 -0.005526998 0.016732238
0001c0 e5 64 8a 3c f9 40 20 3d 72 ca 48 3d 5c b6 8c 3d
       0.016893813 0.039124463 0.049021192 0.0687072
0001d0 38 e8 0e 3d c0 0b af 3b 9e bf 1a 3d 93 b0 a2 3d
       0.03488943 0.005341977 0.037780397 0.07943835
0001e0 36 78 88 3b 4e 78 1f bc 81 04 04 3d 5d 78 35 3d
       0.004164721 -0.009733273 0.032230858 0.04430424
0001f0 35 26 b3 3a e8 4e a1 b9 7e 10 b5 3a a9 29 8d 3d
       0.0013668003 -0.00030767103 0.0013814119 0.06892712

network_body.linear_encoder.seq_layers.0.bias f4 [128]
000000 0b 67 48 bd 9c e6 89 3c 95 61 5e bd 19 77 a9 3c
       -0.048926394 0.016833596 -0.05429228 0.020686673
000010 ac af e7 ba 75 56 09 bd 2a f2 bf 3d 46 a2 d5 bd
       -0.0017676256 -0.033529717 0.09372361 -0.10431342
000020 fa 31 29 be b1 57 7d bd a7 50 0d be 56 07 6a bc
       -0.16522971 -0.061851207 -0.13800298 -0.014283976
000030 a6 04 65 bd c6 79 bf 3d 4d 15 7b bc 60 69 c8 bd
       -0.055912636 0.09349398 -0.015324903 -0.09785724
000040 e8 b3 2e bd f4 ad cc bd 26 e0 4c bd d1 e9 e4 3d
       -0.04265204 -0.099941164 -0.050018452 0.111774094
000050 2e 15 61 bd 89 fe b8 3c 92 3a ea 3c ca da 4c bd
       -0.05495184 0.02258231 0.028592382 -0.05001334
000060 72 47 0b be 9d 55 dc bd 39 ed 10 be c0 6d 10 3c
       -0.13601473 -0.10758517 -0.14152993 0.008815229
000070 c3 a1 2b be b6 f9 62 bc 6f 1a 03 3c 25 2c a6 bd
       -0.16760926 -0.013853481 0.008001908 -0.08113889
000080 99 8a ba bd b2 14 d7 3b ad 19 11 3d 90 b9 0c be
       -0.09108467 0.0065637464 0.035424877 -0.13742661
000090 e6 80 cc bd 07 3d 3c bd e0 a0 ac 3d 59 28 ad bd
       -0.09985523 -0.045956638 0.08429122 -0.08454961
0000a0 73 35 83 3c a5 b7 9b 3d 5e 51 06 bd 79 71 37 bc
       0.016016698 0.07603387 -0.03279244 -0.011196488
0000b0 1b d1 fe bc 19 2a 73 be 1c 87 8d bd ea 8a 13 be
       -0.031105569 -0.23746528 -0.06910536 -0.1440846
0000c0 83 c3 b7 bd de f4 db 3d 8e 80 92 bd 1d a4 12 bd
       -0.08972838 0.10740064 -0.07153426 -0.035801042
0000d0 77 b6 f2 bd a2 17 ed 3b 5a 33 ca bc 56 04 4e bd
       -0.11851209 0.0072354833 -0.02468269 -0.050297104
0000e0 32 a3 f8 bd e7 53 29 be 6d 6b b1 bb 15 9b 3b be
       -0.12140502 -0.16535912 -0.0054144175 -0.18320878
0000f0 75 37 b9 3d 1a 9d 7b 3c f4 d2 a2 bd 13 4b 55 3d
       0.09043781 0.01535728 -0.07950392 0.05207355
000100 fc 54 2f 3d 24 69 84 bb 86 c8 0f bd 65 66 54 3d
       0.042805657 -0.004040854 -0.035103343 0.051855464
000110 98 7d 84 3c 59 f9 60 bd 9f a4 dd 3d ae 9f 06 bd
       0.016173169 -0.054925296 0.108224146 -0.032867126
000120 ae e5 88 bc b9 90 6a bd 4c f7 57 3d 49 c5 99 3c
       -0.016711082 -0.057266925 0.052726075 0.01877083
000130 bb 3f 2b be 95 af e3 bd 70 d4 0e 3b d0 1d ce 3d
       -0.1672353 -0.11117474 0.0021794103 0.1006428
000140 12 a5 2f bd 33 3e 90 bd 23 c5 46 bd bd 8b ac 3d
       -0.042882033 -0.070431136 -0.048527848 0.084250905
000150 92 7f 5d 3c 26 94 06 bd 57 8b 9c 3d 5e 06 a8 bd
       0.013519185 -0.03285613 0.076437645 -0.082043394
000160 ba a4 95 bd 1a 91 9d bd 7f 83 71 bd d0 3c 5b be
       -0.0730681 -0.076936916 -0.058963295 -0.21409917
000170 05 22 9e bc 6c 69 07 3d ea 23 c5 bd 3e 06 d1 bd
       -0.019303331 0.033059523 -0.09625991 -0.10206269
000180 01 38 73 bd 03 3e 13 3e de 6f 93 bd 7a 4b af bd
       -0.05937958 0.14379124 -0.07199071 -0.08559318
000190 c0 e4 ac bd 63 84 ab bd a6 ba 8d 3c d0 f2 65 3d
       -0.08442068 -0.0837486 0.017300915 0.056139767
0001a0 c5 0d 7f bc ec f4 8c 3d ac a1 23 bd 74 17 21 bd
       -0.015567248 0.06882653 -0.039949104 -0.039329007
0001b0 9a e5 a1 bd 06 41 01 bd 65 25 b7 bd 0f 70 85 3d
       -0.07905121 -0.03155615 -0.08942679 0.06515514
0001c0 0b d2 8e 3d 5e 4a ea bb 60 c1 a7 bd e5 d8 93 bd
       0.06973656 -0.0071499785 -0.0819118 -0.07219104
0001d0 e1 67 14 bd 59 e4 e5 bd d3 10 91 3c 82 ac a0 bc
       -0.03623188 -0.112251945 0.017708218 -0.019613508
0001e0 d1 89 fe bd 8b 16 ba 3c e9 da f3 bd 7e 87 8e bd
       -0.1242863 0.022715827 -0.11906988 -0.06959437
0001f0 43 68 8a bd 12 1e b8 bc 9d aa 5a bd f8 86 ce bd
       -0.067581676 -0.022475276 -0.053385366 -0.10084337

network_body.linear_encoder.seq_layers.0.weight f4 [128, 6]
000000 fd c8 41 bd 65 d9 f9 3d 7b 87 e0 be d8 4f da be
       -0.047310818 0.12199668 -0.43853363 -0.4263904
000010 2f 7d e8 be a8 b2 4c 3d 35 50 5d be c5 09 08 bd
       -0.45408008 0.049975067 -0.21612628 -0.033212442
000020 21 1c 6c bd cc 4d 5a 3e b4 74 64 3d d5 ac ac be
       -0.057644013 0.2131874 0.05577536 -0.3372561
000030 6f 1e 7d bd 9b 7e db bc b4 63 88 bf 31 bb e4 bd
       -0.0617966 -0.026793769 -1.0655427 -0.111685164
000040 01 3d ee be 84 b5 8d 3e 42 7a 2e 3c 57 2e c4 3e
       -0.46530917 0.27677548 0.010649266 0.38316604
000050 94 11 ae 3e 60 93 5b be db bd 11 3d 06 1b 0d 3f
       0.33997786 -0.21442938 0.03558145 0.5511936
000060 ee bb ca bb 77 62 3c 3d 36 bc ae be 0b 9c 52 3e
       -0.0061869537 0.04599234 -0.3412797 0.20567338
000070 8c 62 00 be c9 25 e1 bd 72 8f b9 bd df 1e b8 bd
       -0.12537593 -0.10993535 -0.09060563 -0.08990263
000080 0d 95 11 be c7 cc 0e 3d f8 2a 9f 3d a2 60 b4 3e
       -0.14217015 0.03486326 0.077718675 0.35229975
000090 2e 48 14 be b0 88 f4 be df 5f c5 bd 04 72 1d 3f
       -0.1448066 -0.47760534 -0.096374266 0.615021
0000a0 d1 ce c3 3e b7 47 86 bf a9 cb cf 3e 8d 22 04 3e
       0.38243726 -1.0490636 0.40585068 0.12903805
0000b0 f2 49 b5 bd 84 d6 9a 3e ab 6a 52 be 4e d7 28 bc
       -0.088519946 0.30241787 -0.20548503 -0.010305239
0000c0 f3 bf 85 bf 62 a4 5e bf 4a 66 42 bf 77 f7 0d 3e
       -1.0449203 -0.8696958 -0.7593733 0.13863932
0000d0 13 da 72 be 89 e1 f4 bd cf ee 5c be 4b b5 89 3e
       -0.23716001 -0.1195708 -0.21575473 0.26896128
0000e0 31 86 63 3d ab 62 d7 be d1 57 c8 3c 9e 41 0c bf
       0.055547897 -0.42067465 0.024455937 -0.54787624
0000f0 44 b6 05 3c 1d 5c e5 bd 7c b0 54 3e 27 14 11 3f
       0.008161131 -0.1119921 0.20770448 0.56671375
000100 c2 d2 c7 bd 58 6d 02 3d ab 1a 38 3f cf 70 21 3f
       -0.09756996 0.03184256 0.7191569 0.6306276
000110 e5 2e 70 bd 3c 39 b9 3b cb f5 0d bf a0 5f fc be
       -0.058638472 0.005652575 -0.55453175 -0.49291706
000120 f6 d5 c6 3e b6 30 97 3c 47 81 8b 3f 69 27 ee bd
       0.38835114 0.018455844 1.0898827 -0.11628611
000130 4b 72 00 be 67 a2 40 bf 5c 5f 9f 3d 71 60 0b 3c
       -0.125436 -0.75247806 0.0778186 0.00850688
000140 ca 13 9d 3e 64 5a fa 3e 0d 34 11 bf 4e e1 31 bf
       0.3067916 0.48897088 -0.5672005 -0.6948441
000150 88 cc fd be 2f de 5e bc 52 55 49 3e 41 4e 90 3e
       -0.49570107 -0.013602777 0.19661453 0.28184703
000160 7d 84 dc 3d 59 90 27 be 48 17 9d 3d 3e c6 c6 be
       0.10767458 -0.16363658 0.07670456 -0.38823122
000170 33 ca b9 be f6 62 3a bf 2c 76 78 bd be 1f b7 3d
       -0.36287078 -0.7280725 -0.060659572 0.08941601
000180 5a cc 44 3f 8b 3b 66 3e 90 97 05 3e 92 41 23 bd
       0.76874316 0.22483651 0.13046098 -0.039857455
000190 d2 2b b4 3e 7e 79 9d be a2 0a 11 be 6f a8 89 be
       0.35189682 -0.30756754 -0.14164212 -0.26886317
0001a0 3a 48 82 bd 2e cd 72 be 9b 44 90 bc 62 fd a6 bd
       -0.063614324 -0.23711082 -0.017610839 -0.08153798
0001b0 09 36 b1 bd 26 3c 47 be d6 e5 0a bf 0b cb 43 bf
       -0.086528845 -0.19456539 -0.5425695 -0.76481694
0001c0 c6 fa 12 3e 3c 4e 0f 3d 7f 91 27 be a9 08 7b be
       0.14353475 0.03498672 -0.16364096 -0.24515022
0001d0 f7 ea 03 3e 5c 02 84 3c 17 43 b9 be 62 33 53 3f
       0.128826 0.016114406 -0.36183998 0.8250028
0001e0 3f 86 10 3f 2e c8 ac 3e 0d f5 26 3e c5 4e 8f 3d
       0.56454843 0.33746475 0.16304417 0.06997446
0001f0 7a 04 5e 3e 22 98 86 be c8 3d 15 bf 3e 1d 8d bd
       0.21681395 -0.26287943 -0.58297396 -0.06890343
000200 3b 0c 12 bf 79 bc 2d 3f 51 2e ea 3e ec 43 22 be
       -0.5704991 0.6786571 0.45738462 -0.15846223
000210 d9 d7 17 3f 83 d9 24 be 8d 38 f4 3e b1 8a ed 3e
       0.5931373 -0.16098599 0.47699395 0.46394876
000220 3d 06 22 be 14 d9 69 bd 3e fa 8a be 43 24 da 3e
       -0.15822692 -0.057091787 -0.27144045 0.4260579
000230 91 53 f9 3d cf 8c 77 3f ee ab 5b 3e 95 85 1d bf
       0.12174142 0.9669923 0.21452305 -0.61531955
000240 b3 7e 38 3e 2d a3 d4 bd 32 98 19 3f 8b e4 a1 3e
       0.18017082 -0.10382686 0.59997857 0.31619677
000250 48 59 f0 be e3 d4 a3 be 20 61 fc 3d 6f 86 58 3e
       -0.46943116 -0.31998357 0.123232126 0.21145032
000260 33 5a 97 3e db 68 29 be 62 90 3e 3e 40 1e 09 bd
       0.29561004 -0.16543905 0.18609765 -0.033476114
000270 40 64 a6 be d1 3b 11 bf c0 2a 26 3e 61 cf 10 bc
       -0.3249836 -0.567319 0.16227245 -0.0088385055
000280 73 7b 34 bf 13 1b 07 bf 58 28 bf be 2f 6d 96 be
       -0.7050087 -0.52775687 -0.37335467 -0.29380175
000290 96 46 f5 3c 5e f5 2c 3f f9 2f ce be b4 2c 2c 3f
       0.029940885 0.675619 -0.40270975 0.6725571
0002a0 b0 a1 31 3f 1d cc ef bd fe d1 a0 3e d3 f9 1f 3f
       0.6938734 -0.117088534 0.3141021 0.62490577
0002b0 8c eb d5 3d 55 bc 49 bd 9e 69 a3 3d b8 d0 00 3b
       0.104453176 -0.049251873 0.07979129 0.0019655656
0002c0 3f 35 c8 3e 69 40 ec 3e 60 f6 a0 bd ae 4e 6c bf
       0.39103124 0.4614289 -0.07859492 -0.92307556
0002d0 d0 7b ac be 3a 77 d9 3d 07 8a c5 bc ca e1 b9 3e
       -0.3368821 0.10618444 -0.024113668 0.36305076
0002e0 a1 f5 2f 3e c4 6b 2f be 89 83 ff 3e 06 72 34 bf
       0.17183544 -0.17130953 0.4990504 -0.70486486
0002f0 11 42 1a be 71 62 83 be 2d bf dd 3e 96 57 db 3d
       -0.15064265 -0.25661042 0.43309918 0.10710065
000300 94 c5 ce 3e 19 c3 1a bf ad e5 af bf 3d a0 16 3e
       0.40385115 -0.60453945 -1.3741966 0.14709564
000310 6c 49 7d 3e 31 3d 30 bf 84 46 ee 3e a1 36 a6 bd
       0.2473504 -0.6884337 0.46538174 -0.081158884
000320 c5 df 3b bf e3 7f 47 3d e6 78 27 3d 2e 4d 8a be
       -0.7338832 0.048705947 0.040886782 -0.27012008
000330 8b bb 9b 3e c9 de 2d 3f 43 f4 6e 3f 41 d9 86 be
       0.3041652 0.6791807 0.93341464 -0.26337627
000340 51 6b d2 bc 75 19 34 3e ea 5b 09 bf 6e 2b b2 be
       -0.025685938 0.17587836 -0.53655875 -0.3479876
000350 f2 62 5e 3e a2 b3 0a 3e e1 a3 81 be f6 1a 2a 3f
       0.21717432 0.13545087 -0.25320342 0.6644739
000360 03 e8 9c 3e 59 33 bb 3d 09 ef 70 3f 71 eb c4 be
       0.3064576 0.09140653 0.9411474 -0.38460878
000370 b7 ad d5 3e 55 3a 9d 3d 3a be ce be a5 ab 36 bf
       0.41734096 0.076771416 -0.40379506 -0.7135566
000380 55 5b 3f be dd 6d 5a be 43 35 87 bd df 42 d6 be
       -0.18687184 -0.21330972 -0.06601956 -0.41847894
000390 b0 e9 f9 be 22 24 74 3d df 24 3a be 69 98 0b 3f
       -0.48811102 0.05960477 -0.18178128 0.54529434
0003a0 e0 bd 2f 3e ee ee a2 be d7 8e 6c be bd ba 87 3e
       0.17162275 -0.31822914 -0.23101364 0.26509658
0003b0 93 1b 30 3f c5 63 4d bd 8c d7 e7 be aa c0 31 bd
       0.68792075 -0.050143976 -0.45281637 -0.04339663
0003c0 13 45 d8 bd 1f 04 13 3e 0c 81 4f 3e 4a e3 34 3f
       -0.1056005 0.14357041 0.20264071 0.70659316
0003d0 45 49 17 bb 11 8d c5 be 39 af 74 3e ff 1f 64 be
       -0.0023084444 -0.38584188 0.23894967 -0.2227783
0003e0 76 26 7c 3e 68 76 e2 be 48 05 97 3e 6c 24 5a 3f
       0.24624047 -0.44230962 0.29496217 0.85211825
0003f0 e4 13 c5 be 9d b9 a7 be 15 51 5c be e8 b5 8a 3e
       -0.38491738 -0.327588 -0.21515305 0.27091908

network_body.linear_encoder.seq_layers.2.bias f4 [128]
000000 8b f1 df bd e0 95 b9 bc 9f 16 de bd 03 f1 14 bd
       -0.109347425 -0.022654474 -0.108441584 -0.03636266
000010 0a 2a 84 bc c8 30 40 bd cc 03 9b bd 7a b0 96 bd
       -0.016133327 -0.04692152 -0.075690836 -0.07357879
000020 01 17 41 bd ae bd d4 bc 11 d8 8f ba 06 19 db bd
       -0.04714108 -0.025969353 -0.0010974427 -0.10698132
000030 28 0a c4 bd b0 1d 7b bd f6 63 71 bd fe f1 96 bd
       -0.0957225 -0.06130761 -0.05893322 -0.07370375
000040 6b 35 38 bd 88 ad 47 bd 18 01 e6 bd 31 32 bd bd
       -0.04497282 -0.048749477 -0.11230677 -0.09238089
000050 93 91 a4 3b 14 58 55 bd fc 5b a6 bd 30 b6 91 bd
       0.0050222366 -0.05208595 -0.081230134 -0.07114828
000060 f4 94 e7 bc 49 1f 1b 3c 8f 70 18 bd 59 fd 7b bd
       -0.028269269 0.009467908 -0.03721672 -0.061520908
000070 1a 00 e2 bd dc 86 87 bd b4 53 8a bd e3 2d 95 bd
       -0.110351756 -0.06617519 -0.06754246 -0.07284143
000080 94 31 c8 bd 56 bb e1 3b eb b0 13 bd 1a 4e 99 bd
       -0.09775081 0.0068887873 -0.036057394 -0.074856
000090 94 07 4d bd a4 a1 88 bd bb 85 fc bd 15 ce 85 bd
       -0.050056055 -0.066714555 -0.123301946 -0.06533448
0000a0 a2 e6 4c bd 19 d9 95 3b 0c 08 cf bd 93 b3 98 bd
       -0.050024636 0.004572999 -0.10108957 -0.07456126
0000b0 1a fc 5a bd 9e ff 88 bd 1b 5b 0d bd 01 89 25 bc
       -0.05346308 -0.0668938 -0.034510713 -0.010103465
0000c0 91 6b 5e bc d7 2a fd bd 8b 9b 26 bd a0 d7 c9 bd
       -0.0135754505 -0.12361687 -0.04067568 -0.0985558
0000d0 b2 15 e7 bd 8e 1a 89 bd f6 4e a3 bd b2 10 a0 bd
       -0.11283435 -0.06694518 -0.07974045 -0.078156844
0000e0 53 6a fc bc f7 45 df bd ea 41 cf bd 8c e7 49 bd
       -0.030812418 -0.109020166 -0.10119994 -0.049293086
0000f0 52 cc a1 bd ac 9d e1 bd b7 08 db bc f0 fb 95 bc
       -0.07900299 -0.11016402 -0.026737554 -0.01830861
000100 51 9e b0 3b af c4 a4 bd 3a 16 af bc b7 e5 74 bd
       0.0053899665 -0.08045327 -0.021372903 -0.059789386
000110 2f 17 d7 bd eb 43 d2 bd 15 6a 6b bd 81 a7 e9 bd
       -0.10502469 -0.102668606 -0.057474215 -0.11408902
000120 3e 65 a7 bc b1 0f e2 bd 23 ca 50 bd 1f 48 fc bd
       -0.020434018 -0.11038149 -0.050974023 -0.123184435
000130 da 30 b6 bd b2 80 d1 bd 82 43 da 3b dd de 56 bd
       -0.088960364 -0.10229625 0.0066608796 -0.052458633
000140 3f 5f 66 bc 7a f3 08 be e7 83 16 bc 3d 37 cf bd
       -0.014060794 -0.13374129 -0.009186721 -0.10117958
000150 dc db 08 be 59 8b e3 bc 0b 52 28 bd e5 d3 f3 bd
       -0.1336512 -0.027776407 -0.041093867 -0.1190565
000160 37 07 c6 bc bc d7 7c bd 2f 52 ef bc 58 27 f8 bd
       -0.024173362 -0.061729178 -0.029213993 -0.12116879
000170 74 11 a8 bd 7e a1 d7 bd a8 74 02 3c 74 9b 40 bc
       -0.08206454 -0.10528849 0.007962383 -0.011755813
000180 40 f4 9e bd a2 86 97 bd 08 97 aa bd c8 2e e9 ba
       -0.07761431 -0.07398726 -0.08329588 -0.0017790431
000190 4a 5b bc bd 3f 68 00 bd f1 88 51 bd f6 94 0d be
       -0.091970995 -0.031349417 -0.051155988 -0.13826355
0001a0 0c ad 99 bc 86 3c d4 bd 71 e8 8a bd 61 37 21 bd
       -0.018759273 -0.103631064 -0.06782616 -0.039359454
0001b0 08 b4 d5 bd b3 42 71 bd 13 b4 b7 bd 35 78 9a bd
       -0.10434729 -0.0589015 -0.08969893 -0.07542459
0001c0 4b 1a 9a bd b9 3f ba bd 9c 55 a4 3c a3 62 15 bd
       -0.07524546 -0.090941854 0.020060353 -0.03647102
0001d0 1d bb 51 bd 6d aa df bd 93 df ad bd d3 b7 cf bc
       -0.051203836 -0.10921178 -0.08489909 -0.025356209
0001e0 a0 a4 7b bd 68 a1 bb bc e3 e7 27 bd 81 74 9a bd
       -0.061436296 -0.022904113 -0.04099263 -0.075417526
0001f0 e2 26 7a bc 24 60 6f bc 50 23 1a be d9 7f 30 bc
       -0.015268059 -0.014610324 -0.15052533 -0.010772669

network_body.linear_encoder.seq_layers.2.weight f4 [128, 128]
000000 e1 42 0a be ec 60 59 3c 27 6d 13 be 37 c4 06 be
       -0.13502075 0.013267737 -0.14397107 -0.13160788
000010 bd 83 93 bd 4d 61 08 be 11 83 e6 3d 04 d9 27 3e
       -0.072028615 -0.13318367 0.11255468 0.16391379
000020 61 08 15 bd 8d 6d 08 3d 17 1b 91 3d 05 6b a3 bd
       -0.036384944 0.0333076 0.07085245 -0.07979397
000030 6b ac bd bb c6 ab 0d bd ca 23 d3 bd d6 94 ff 3c
       -0.005788376 -0.034587644 -0.103095606 0.0311989
000040 42 37 36 bd 53 1e 28 bd 93 2c d9 bd cd d0 2f be
       -0.04448629 -0.041044544 -0.10604205 -0.17169495
000050 35 22 8d 3e 2e ab 72 be 2e 53 9a 3e fa d8 12 3e
       0.2756516 -0.23698112 0.30141586 0.14340582
000060 39 c5 21 bb 4f 92 36 3d 00 19 65 be 06 16 4c 3d
       -0.0024684204 0.044573124 -0.22372818 0.04982569
000070 00 95 df bc 7a 66 bb 3b 81 6b 40 be 67 92 65 3e
       -0.027292728 0.0057190033 -0.1879101 0.2241913
000080 20 96 61 3d 58 5d a5 bd 8c ad 00 3e 86 d3 39 be
       0.05507481 -0.080744445 0.12566203 -0.18147096
000090 ce d2 65 3d e8 27 06 be 75 eb 15 be 09 63 90 bd
       0.056109242 -0.1310116 -0.14640601 -0.070501395
0000a0 0b ae f8 3b c2 cb 26 be e5 f5 24 be 09 60 5a be
       0.007589107 -0.16288665 -0.16109426 -0.21325697
0000b0 2c 52 3c 3e ba 03 a1 bd 38 a6 32 3e 8f 28 27 3e
       0.18390721 -0.07862039 0.1744622 0.16324066
0000c0 d3 cc 10 3d e1 52 fa 3c 6e 8b 80 bd 2e 0c 85 3d
       0.035351586 0.030557098 -0.06276594 0.06496464
0000d0 25 81 1c 3c 92 be 8f 3d 3e ea 26 be 69 b8 fd 3d
       0.009552275 0.0701877 -0.16300294 0.12388689
0000e0 a8 45 d6 bd b3 9b ce bd f2 76 7b be 85 c5 90 be
       -0.104625046 -0.10088291 -0.24557093 -0.28275695
0000f0 b4 8f 30 bd b2 01 a8 bd 10 81 56 be fa 22 5e 3e
       -0.043105796 -0.08203448 -0.20947671 0.2169303
000100 84 56 67 be a5 55 4c 3e d3 be c1 bd 0f 32 80 3c
       -0.22591597 0.19954546 -0.09460225 0.01564887
000110 c3 d4 2c 3e 03 fd 3e be fe 9f 8f bd 16 81 51 3d
       0.16878037 -0.18651204 -0.07012938 0.051148497
000120 96 37 45 3d 2d c2 f6 3a 79 c4 fd 3b 72 67 db 3d
       0.048148714 0.001882618 0.0077443686 0.1071309
000130 7a 16 16 be 00 43 62 3e 7f 89 2d 3c eb 49 6f 3e
       -0.14657012 0.22095871 0.010591864 0.23368041
000140 1d 21 e0 bd 77 1b 99 be 45 06 33 be 44 0c b9 bd
       -0.10943816 -0.29903767 -0.1748286 -0.090355426
000150 06 73 05 3e 57 b1 16 be 88 0e f9 3d e3 2f 41 bc
       0.13032159 -0.14716087 0.12160975 -0.011791202
000160 f2 55 1b be b9 98 ff 3d d0 61 09 3e d9 f2 06 bd
       -0.15169504 0.124803014 0.13416219 -0.03294644
000170 e6 6d 36 3e f0 8d a4 3d 6c f9 80 3c 00 62 28 3e
       0.1781536 0.08034885 0.015743934 0.16443634
000180 26 dc 4f 3d d4 4a ba 3b b3 54 17 be a6 53 88 3d
       0.05074706 0.0056851897 -0.14778404 0.0665658
000190 1a f8 96 bd be 05 2f 3c 34 f6 83 3e 55 fe 27 3e
       -0.0737154 0.010682521 0.25773776 0.16405614
0001a0 45 d7 0e bc da 42 15 3e 5d 26 43 be 97 c2 c5 bd
       -0.008718316 0.14576283 -0.19057603 -0.09656256
0001b0 7b 7a 07 3a c0 24 97 bc 84 98 ac 3d 87 ea 35 3c
       0.00051680923 -0.018450141 0.084275275 0.011103279
0001c0 50 85 a3 bd c8 e2 9f bd b9 a8 07 be 9c 50 c8 bd
       -0.07984412 -0.07806927 -0.13247956 -0.09781
0001d0 91 b0 79 bd 2e a2 35 be e7 24 47 3e 26 fb 22 3d
       -0.060959402 -0.17737648 0.19447671 0.039790295
0001e0 c5 da 14 be e8 51 92 3d 5d 02 78 3b 14 2d 2b be
       -0.14536579 0.071445286 0.0037843206 -0.16716415
0001f0 58 ba 0b bd 53 2b 4e 3e f4 74 56 bd 27 2a 14 be
       -0.034113258 0.20133714 -0.05235763 -0.14469205
000200 22 f5 de 3d f4 b1 ed bd c7 2d bf bc 38 d6 24 be
       0.10886599 -0.116062075 -0.023337258 -0.16097343
000210 f0 fe d4 3d de e7 bb bd 3a 87 fe 3d 0a 93 99 3d
       0.10400188 -0.091750845 0.12428136 0.074987486
000220 0d 1e 0e bd f3 2e 62 be 9f 9c 8e 3d 55 c7 69 3c
       -0.034696627 -0.22088222 0.06963467 0.014268716
000230 ab 51 e5 bc 6d 26 c4 3d 1e a1 4d bb f1 cb 08 be
       -0.027993044 0.09577642 -0.003137655 -0.13359047
000240 3b 35 80 3d ab aa d3 bc a4 ff b6 bd 25 8e b6 3d
       0.06260153 -0.025838217 -0.08935478 0.08913831
000250 e9 e1 8f bd cf 27 69 3d 51 27 8e bc 5f 24 ec 3d
       -0.07025511 0.05692273 -0.017352732 0.11530375
000260 fc cb 98 bd c0 c8 a9 bd 40 2a f6 3c e3 ff 18 3d
       -0.07460782 -0.08290243 0.030049443 0.037353408
000270 8e b7 1e 3d 7c 59 07 3e 2d aa 16 3d 5c c3 a8 3d
       0.03874927 0.1321773 0.036783386 0.08240387
000280 4e 41 25 3e dd 35 1f 3e e5 c1 af bc 1b 90 86 3c
       0.16138193 0.15547891 -0.02145476 0.016426137
000290 6e f7 8c 3d 4f 47 d9 3c 65 7c 9d 3d 26 da b3 3c
       0.06883131 0.02652326 0.07689742 0.021954607
0002a0 f5 1b 1d 3c 35 ea 92 bd 94 78 d4 bd 65 dc 95 bc
       0.009589185 -0.07173578 -0.10374561 -0.018293569
0002b0 c1 bb 27 be a3 02 37 be ab 91 14 be be 10 88 3d
       -0.16380216 -0.178721 -0.14508693 0.06643818
0002c0 6c 12 d8 bd 5a de 41 bd a0 06 31 bd 2f 5a 13 be
       -0.10550389 -0.04733119 -0.04321921 -0.14389871
0002d0 95 87 1b be ed 2d f5 bc 43 13 b8 bd 7c 63 dc 3c
       -0.15188439 -0.029929126 -0.08988049 0.026902907
0002e0 30 88 3c bd 50 0a 08 be a2 ce df bc c2 2b 5f be
       -0.046028316 -0.13285184 -0.02732021 -0.21794036
0002f0 46 61 02 be 24 f9 5f be 89 8e 95 bd e4 7d 1b 3c
       -0.1273242 -0.21872383 -0.07302577 0.009490464
000300 c3 c3 29 3e b1 7e 6d 3d 31 f3 cf bd 9f f5 e3 bb
       0.16578583 0.05798215 -0.10153807 -0.0069567706
000310 56 b8 06 3e 1c bc 50 3b 7d e7 aa 3c c5 19 9c 3c
       0.13156256 0.0031850403 0.020862335 0.019055257
000320 7d 68 02 bd 69 e2 e0 bd c3 0a 10 3c bd f9 a3 3c
       -0.03183793 -0.10980684 0.008791628 0.020016545
000330 be 04 85 bd 82 ab df bd 9a 62 1a be 44 a1 2a bd
       -0.06495045 -0.109213844 -0.15076676 -0.0416577
000340 fa 5b f0 bc 37 66 d4 3d 7c 45 c8 bd 18 27 0c bc
       -0.029340733 0.103710584 -0.09778878 -0.008554243
000350 91 b0 f0 bd 98 fb d8 bd 8a d9 9f bd a5 fc ce 3c
       -0.11752427 -0.10594863 -0.07805164 0.025266955
000360 24 1d 5c bd b5 50 10 3d eb 77 1a 3d 05 1f 0a bd
       -0.05373873 0.03523322 0.03771202 -0.03372099
000370 b4 32 58 3e 5a 57 8d 3d 73 ca cb bd 25 02 e4 bc
       0.21113092 0.069014266 -0.099507235 -0.027833054
000380 e6 1f 3a 3c f2 f1 5c bd 0c ca ba bc 7e 88 b7 3b
       0.011360144 -0.053941675 -0.022801422 0.005600988
000390 a2 b2 5f bd 9d 05 df bc df 22 f6 3c 0c 06 02 3d
       -0.054613717 -0.027224356 0.030045925 0.031744048
0003a0 5a 16 4b be 05 21 56 be 5c 0b dd bd b7 fd 4b be
       -0.19832745 -0.20911033 -0.10793182 -0.19921003
0003b0 10 75 e7 bc d1 cd 47 3c db ac 16 3e 69 d7 9c 3c
       -0.028254062 0.012195067 0.14714377 0.019145684
0003c0 d1 f1 16 3e 37 1e 42 3c 3f 2f 14 bd 26 97 0e be
       0.14740683 0.011848024 -0.03617787 -0.13924846
0003d0 19 c1 1f be 69 41 e5 bd 39 1a d2 3c ee 62 1d be
       -0.15601005 -0.111941166 0.02564727 -0.1536977
0003e0 65 86 21 bd 51 c1 35 3d 39 a9 f0 3c 9b 8e af bc
       -0.03943481 0.044373814 0.029377567 -0.021430304
0003f0 63 b8 4a 3c 00 0d 0c bd 40 23 5d be 85 c9 93 bc
       0.012373063 -0.034192085 -0.21595478 -0.018040428
