Assets/ML_Brain/Final Brain.onnx (onnx, 72383 bytes, 7 tensors)

39 f4 [1, 2]
00000000: 403e a6be f5b3 5ebe
-0.32469368 -0.21748336

distribution.mu.bias f4 [2]
00000000: 5af9 a93c 29c7 c03c
0.020748783 0.023532467

distribution.mu.weight f4 [2, 128]
00000000: 97b0 fdbd a36d 39bd 5878 e6bd 776f 93bd
00000010: 67ad 9e3b fd26 473c fcf6 d0bd dd56 dbbd
00000020: 91ec debc a5c9 bbbd 0b91 7bbd 045c 6bbd
00000030: 195e 93bd 7214 d4bd 747e a5bd 4992 abbd
00000040: be8f 1ebd b81b 9bbd 0d1a 1bbd 328f d2bd
00000050: faa0 c9bd 7584 4ebd fba7 e1bd 8058 d5bc
00000060: 5e3a f0bd 0b5a 693d 4985 e8bc af12 cfbd
00000070: ffca bbbd 3186 47bd ae8a ddbc 398f 26be
00000080: 5cec 93bc 37d8 8fbc 22be d3bc d4bc f2bc
00000090: a51d 51bd fdcc 50bd 7b1a cf3c aebc 2cbd
000000a0: a316 13be 36c2 19be 9f71 dbbd 0e1d 103c
000000b0: f263 2dbd 5d6c cabd 7562 fcbd 5b70 10be
000000c0: 9d4b 8dbd 3167 f0bd cc3e 10be fef5 9cbd
000000d0: fec1 15be 16e9 57bc 2875 0cbe a046 f5bc
000000e0: 2baf c83c 8886 bdbc 9290 e23b adc8 7ebd
000000f0: c872 79bd 091e 4fbd 808e 72bc c8fc 8dbd
00000100: 948a 5dbd 3447 8a3b 7216 d9bd 216b aa3c
00000110: 2cda 1abe 3da4 fbbc fa56 09be 7c8c c3bd
00000120: 535c 8ebd 3bdd 09be c250 f4bd 86e7 a0bd
00000130: 849d 0abe 7151 70bc f113 04bd 8160 e6bd
00000140: 2fd6 70bd e10d afbc 10f2 ffbc 46aa 43bd
00000150: 39f5 513d ce83 06be 99d4 9bbc 6567 ab3d
00000160: 4e70 e83c 8aa2 00be 7ac3 ceba 0c88 52bd
00000170: 3000 40bc f18c c4bd 13bc 0dbe 531e 47bd
00000180: abc8 03bd 750a c6bd acab 0d3d ea6f 62bd
00000190: 6d89 ed3c 9acb 06bc eceb 663d 99bd a03d
000001a0: bb88 24bd 3dfd 37bd be35 273d 250b 683d
000001b0: 871c 01be 6f90 06be 6e3e 94bd a02a 1fbe
000001c0: 7725 5cbd 1c3e f2bd 5368 afbd 8572 15bd
000001d0: 1cac 7ebd 459a 0bbe ff35 6fbd be09 bcbc
000001e0: 84a8 cdbd 1862 aebd bb8e 65bd 10ba babc
000001f0: 532b 00bd ef0b b8bd 9cbe e6bd aa84 a4bd
00000200: bcbe f6bc 05bd 753c 108b d43c 85bb 2cbe
00000210: 9e59 bd3c 7cca 223d 9da1 0bbd 0c2c e1bc
00000220: 4241 b83c 6095 3ebd 9448 12be 048c a8bc
00000230: 6246 2ebc 973c afbd 63ec bebc bbf6 b1bc
00000240: d787 fbbb 59c4 4dbc f33f 7dbc 19ca 68bd
00000250: 2a13 9ebd d08c 6b3c 2e9a abbc 1af1 c73c
00000260: 36b2 00bd e278 133d f5ea ed3c cc36 ddbd
00000270: 8f35 543c cdd7 323b 629e 043d 467b 63bd
00000280: b093 0c3d 10a1 af3d 39b8 c43c 4b7a 9f3c
00000290: f31b 853d 29fd 0bbc fd8b a9bd 8155 263c
000002a0: 76c6 d4bc 51aa 663c aacb 82bc c2af 05be
000002b0: e3df be3c 7d79 afbc ccee d9bc 17bc 823c
000002c0: 2022 4fbe e1ee ccbc d053 a8bb fa85 493d
000002d0: 7a03 99bd a520 ee3c 705f a8bd a550 873c
000002e0: a5fb adbd 112d c2bd 3303 843d 466a 92bd
000002f0: 39d5 2abd f3cf bbbc 1b99 c83c aa90 3f3b
00000300: 32ae 12bc 19e4 183d 9a0b 4d3c fd64 d239
00000310: a9f5 013d 10ac aa3b f5bc e73c 38f3 96bd
00000320: ef4a 7ebc 844d 17bd 805c c3bc 2dba 69be
00000330: b839 5ebd 0555 88bd eef5 533c eb59 0dbd
00000340: a898 2abd cfd6 15be a24c 8dbd 65f5 c6bd
00000350: d792 63bd 7ac6 1bbc d654 dc3c 2f94 673d
00000360: 37df 093d 8071 8cbd bb24 083d f063 7cbc
00000370: 93c1 dbbd 1478 ccbb 2f78 d83c 574c 70bc
00000380: 3642 8f3c 78fa e7bc de99 c8bd dd9f 45bd
00000390: 2461 bdbd 0452 15bd 91c0 993d ee17 7b3d
000003a0: 70cc f4bd 905b 53bc fbf1 6d3c 5ecc e5bd
000003b0: 54c5 15bd 36e3 c7bc f32e ae3b 9090 0dbd
000003c0: 7c25 8b3b b27e f8bb 0b46 03bd 78dd 9a3c
000003d0: 1c30 c93d c71a f0bc 0ed0 03bd 8f42 0cbe
000003e0: 4514 09be 7d23 603d 841f 99bd c55f f7bd
000003f0: c0b5 f63d 057f 8f3d 53af 2d3d a017 b939
-0.123871975 -0.045270573 -0.112534225 -0.071989946 0.0048424485 0.012155292 -0.102033585 -0.10709927
-0.027212413 -0.0916932 -0.06141762 -0.0574608 -0.07195682 -0.10355462 -0.0808076 -0.08377511
-0.038711302 -0.07573646 -0.03786664 -0.102812186 -0.09845157 -0.05041929 -0.11018368 -0.026043177
-0.11729883 0.056970637 -0.028383868 -0.101109855 -0.09169578 -0.04871196 -0.027043667 -0.16265573
-0.01805704 -0.017559154 -0.025847498 -0.029631056 -0.05105366 -0.050976742 0.025281182 -0.042172126
-0.14364104 -0.15015492 -0.10715031 0.00879599 -0.042331643 -0.0988395 -0.12323467 -0.1410536
-0.06899188 -0.11738432 -0.14086455 -0.07664107 -0.14624783 -0.013178131 -0.13716567 -0.029940903
0.02449759 -0.023135439 0.006914207 -0.062203098 -0.06090048 -0.050565753 -0.014804482 -0.0693298
-0.054087237 0.004219914 -0.10599984 0.020803036 -0.15122288 -0.030717963 -0.13412085 -0.0954828
-0.06951203 -0.13463299 -0.11929466 -0.078566596 -0.1353665 -0.014667855 -0.03224558 -0.112488754
-0.05879801 -0.021368923 -0.031243354 -0.047769807 0.051259253 -0.13136217 -0.019022273 0.0836933
0.028373864 -0.12562004 -0.0015774809 -0.051399276 -0.011718795 -0.09597195 -0.13841276 -0.048612904
-0.032173794 -0.09669963 0.034587547 -0.05528251 0.028996194 -0.008227253 0.056377336 0.07848663
-0.04016946 -0.04491924 0.040822737 0.056651253 -0.12608539 -0.13141035 -0.0723847 -0.15543604
-0.053746667 -0.11828253 -0.0856482 -0.036486167 -0.062175855 -0.13633068 -0.058401104 -0.022953864
-0.100419074 -0.08514804 -0.05604432 -0.0227938 -0.031291317 -0.08986651 -0.112668246 -0.08033116
-0.030120246 0.014998679 0.025945216 -0.16868408 0.023114022 0.039743885 -0.034089673 -0.027486823
0.022492055 -0.046529174 -0.14285499 -0.020574577 -0.010636898 -0.085564785 -0.023306077 -0.021724096
-0.0076761055 -0.01255902 -0.015457141 -0.05683336 -0.07718499 0.014376834 -0.020947542 0.024406958
-0.031419955 0.036003955 0.0290427 -0.10801467 0.0129522225 0.0027289272 0.032377608 -0.055537485
0.034320533 0.08575642 0.024013625 0.019467494 0.064994715 -0.008544245 -0.08278654 0.010152222
-0.02597354 0.0140786925 -0.015966255 -0.13055328 0.023300117 -0.021420235 -0.026603125 0.015958829
-0.20227861 -0.02501625 -0.0051369444 0.049200036 -0.07471366 0.0290683 -0.08221328 0.016517946
-0.08495263 -0.09481252 0.06445923 -0.07149176 -0.04170725 -0.022926306 0.024487069 0.0029230514
-0.008952664 0.037326906 0.012514973 0.00040129563 0.03172842 0.0052084997 0.028288344 -0.07370609
-0.015520795 -0.03693916 -0.023847818 -0.22824927 -0.054254264 -0.06656841 0.012937052 -0.03450958
-0.04164949 -0.14632724 -0.06899382 -0.09714774 -0.05555996 -0.00950777 0.026895922 0.056537803
0.03366014 -0.06857586 0.033238154 -0.015404686 -0.10730281 -0.0062399004 0.026424496 -0.014666638
0.017487627 -0.028317675 -0.09794973 -0.04824816 -0.09247044 -0.03645517 0.07507432 0.061302118
-0.11953056 -0.012900248 0.014523025 -0.112206206 -0.03656514 -0.024400335 0.0053156554 -0.034561694
0.004246412 -0.0075834626 -0.03204922 0.018904433 0.09823629 -0.029309643 -0.03218084 -0.13697265
-0.13386638 0.054721344 -0.07476714 -0.120788135 0.12046385 0.07006649 0.04240353 0.00035303552

network_body.linear_encoder.seq_layers.0.bias f4 [128]
00000000: ae9d b7bd ec45 21be e079 38bd a387 2dbd
00000010: ba51 3bbd c163 14be 00a0 10be ea66 4e3d
00000020: cd56 613c aab6 05be 134f 18be 8feb b6bc
00000030: bce0 23be 372f ecbc d17d 4e3d 5ce2 253d
00000040: 4e1c 4cbc 1117 88bc df88 2ebe deed ec3b
00000050: 15cd 2dbe d51e 763a 9159 04be 6158 c5bd
00000060: df21 9fbd 95af f93c f6bc e1bd 2dea 1ebc
00000070: 7429 35bd f475 bbbd c325 64bb 3cff 83bd
00000080: 3ca2 febd 841c 1cbe d1ff b4bd dfef 923b
00000090: 456c 003d fd4c 1cbe 4143 fabd 71a2 3b3d
000000a0: ebe5 c6bd b1af 153e f209 10be a07c 663a
000000b0: 5c42 1dbe 84fb 50bd 3107 41bd 2b77 023e
000000c0: d73c 57bd 5e8d 7a3c 3b05 21be 5231 67bd
000000d0: bd7b 2ebe 4c50 32be 092a efbd e595 123d
000000e0: 3fcd a8bd e546 4fbe 95fd 2cbe 9695 8ebd
000000f0: 0976 08be 0956 1fbe 6d15 bcbd 5b56 05be
00000100: bf14 5bbc f995 433c 1f88 0abd faa5 5abd
00000110: 67c1 3cbc af79 50bd b4ba 47bd ef70 fbbd
00000120: 63bd 423d 056c ff3d 123f 9cbd af14 cfbd
00000130: 4195 fd3b f755 353c d4b3 df3c fc9c e0bd
00000140: 0621 08bd 5e85 80bd a6b1 7fbd 1f18 fa3c
00000150: 9f5b fc3d 39ed 57bd eb09 d6bd e4d6 e1bd
00000160: 7f11 37be b707 ddbd 4bf5 cdbd 5c93 683c
00000170: 1d9c 1dbe 96a6 c73d 2d51 02be 5765 43bb
00000180: 0351 84bd 5e94 32be 25b5 803d 7524 5abd
00000190: 6d3d 05be df11 d4bc 6a44 dcbc 9772 813d
000001a0: b028 d43d 39fc e1bc 0eeb 993d 6162 d2bd
000001b0: 5841 6ebc 3d5a 9abd 5cf8 923b 4b1f 39bd
000001c0: 310b f5bd 7441 b2bd 716f eeba 1cae 00be
000001d0: 4d6c 1bbb 2f53 b0bd c86a e73c 6a8f 3b3d
000001e0: 20f8 03bd 315b 9ebd 61a5 1b3d 39f9 7fbd
000001f0: f143 b63d 8fea 0dbd 4626 fb3c 6d39 32bd
-0.08965622 -0.1574933 -0.045038104 -0.04236568 -0.045732237 -0.14491178 -0.14123535 0.050391115
0.013753605 -0.13057962 -0.14873914 -0.02232912 -0.16003698 -0.028831108 0.050412957 0.040499076
-0.01245792 -0.016612561 -0.170444 0.0072305044 -0.16972764 0.00093887496 -0.12924792 -0.096359976
-0.07770132 0.030479232 -0.110223696 -0.009699387 -0.044228986 -0.09153357 -0.0034812547 -0.064451665
-0.124332875 -0.15245253 -0.088378556 0.0044841613 0.031353254 -0.15263744 -0.12219859 0.045809213
-0.09711822 0.14617802 -0.14066294 0.0008792374 -0.15357345 -0.051021114 -0.047126 0.12740771
-0.052548256 0.015292494 -0.15724652 -0.05644352 -0.1703939 -0.17413443 -0.116779394 0.03578748
-0.082422726 -0.20241888 -0.16893609 -0.06962125 -0.13326277 -0.15560164 -0.09183774 -0.13021223
-0.0133716455 0.011937612 -0.03382122 -0.053380944 -0.01152072 -0.050897297 -0.04876204 -0.122774
0.047543894 0.12471775 -0.07629217 -0.10111367 0.0077387397 0.011067859 0.027307428 -0.109674424
-0.03323462 -0.06275438 -0.062425278 0.03052908 0.12322163 -0.052716468 -0.104511105 -0.11027315
-0.17877768 -0.10792487 -0.100565515 0.014195289 -0.15391584 0.097485706 -0.12726279 -0.0029815042
-0.06460764 -0.1743941 0.062845506 -0.053257424 -0.13011713 -0.025887428 -0.026888091 0.063206844
0.10359323 -0.02758609 0.07515536 -0.102726705 -0.014541946 -0.07536743 0.004485173 -0.04519586
-0.11965025 -0.087038904 -0.0018191171 -0.12566417 -0.0023715675 -0.08609616 0.02824916 0.045791067
-0.032219052 -0.07732237 0.037999514 -0.062493537 0.088996775 -0.03464752 0.030657899 -0.043511797

network_body.linear_encoder.seq_layers.0.weight f4 [128, 6]
00000000: f63a c4be e220 a43e 2376 923d a4fb bcbe
00000010: 94f9 c93e 2337 9ebd 4bff 9cbe 86e3 38bd
00000020: 26af 9a3e 4ad5 39be c954 0bbf 8fa8 0f3f
00000030: c090 31bd 0373 2f3f 3935 bc3e 3b03 523e
00000040: 9760 25bf 674e c5bd 49bc cc3d 7b30 99bd
00000050: 1be3 233f acbb 8e3e a87d 58be c2d0 c9be
00000060: b6a3 54be 0e21 fbbe 760f 8a3e 6b92 4b3e
00000070: c500 4abf 077e 663e de37 d83e cafd 44bf
00000080: c4b4 833e b999 113f 372a 67be 1a3e 7cbe
00000090: 483b 63bf 75d1 ce3e 62bf 743e 885a 233f
000000a0: 2d6c 4d3f c85d 583e 1624 75bd 881b b8bd
000000b0: 61f7 ebbe 9dfb 353e 5bc2 803f 5e51 3c3f
000000c0: 7b73 c9be c22d e03e 3c0a be3d bef0 253e
000000d0: 021b a73e a201 853e 2d62 acbe 1619 54be
000000e0: c2fe f63e b96b 493f f4b4 cebd 7bfe bc3e
000000f0: ed7b 113d 0d94 f43e 016f 15be 385a e5bd
00000100: 82f0 60be 7efa 2ebd ee66 c3be fdfb e4be
00000110: 5403 2d3f 483d dfbc beee 923e b653 1b3f
00000120: 2707 153e cf2a d0bd a84a 103e 93ed 28bf
00000130: 1dfb 09bf 6785 7bbe d148 2dbe 7b31 0a3f
00000140: 2fc5 edbe 9470 f2be 0e6b 613e eae0 14bd
00000150: e615 143f 67b1 73be c04f 52be d274 eb3d
00000160: 3bb5 d5be 9b5c 683e c1d9 19bf 5403 54bf
00000170: 4ec0 8ebe be84 b6be 8c27 b03e 5df1 63be
00000180: 4b82 663f feae 443f 121d 003f 2f70 673d
00000190: 7b86 fb3e 5be9 173e 9d9f 75be 4c23 e5be
000001a0: b04a d43e 20c0 283f 1ba5 86be af63 d73e
000001b0: cef1 aabd 38c3 8d3e 9d7e 90bd 2d0d 17bf
000001c0: 306d 443e 6f6f 613f d271 843f 9b3b 463f
000001d0: 3191 933d 1788 dbbe 7516 babd d7a1 81be
000001e0: 218a 7bbe e564 0abf ad91 a13b a9f4 a5be
000001f0: b8b1 1ebf 54ec a93e 1094 99bd f6cd 77be
00000200: 7855 edbe e245 d43d e445 adbe e382 2d3e
00000210: 8733 113e ee20 f8be 870a 0ebe e635 313e
00000220: c398 823d 2b6d 8d3d 1f3e 16be 35d9 45bf
00000230: 7698 6fbd 0088 48bf c443 74bd 903d 96bd
00000240: 9a61 f1be a46f a03e 5588 9dbd 19a4 323f
00000250: dd65 adbc 7b6f 7a3f 663c 0abe 90e4 3e3e
00000260: 3d41 e5be e815 d73e 5fc7 21bf d670 283d
00000270: 6afa 25bf ea06 343e 2910 2bbe 35f9 a4be
00000280: 585d 14bf d63e 9a3e 45fa 7a3e b10d 5ebe
00000290: 8b02 8abe 179a 01bf 4c11 a4be 3679 53bf
000002a0: 6bba d53e 4756 b1be b075 a5be 60f6 8c3f
000002b0: 46cd 49bf 3413 b93d 6d7a 243e 4562 46bf
000002c0: 1099 07be f424 bc3e 7643 543f 508f ec3a
000002d0: dc27 833f c59d 003e aaa3 033e 2d61 b8be
000002e0: 85b0 fdbe 08de f9be ddeb 793d 8976 5ebe
000002f0: 132a b93e e107 b9be f05b 01bf fa3a 04bc
00000300: 0ea1 ae3d 6430 a6be cd9a b4bd 79a7 a5be
00000310: a438 0e3f b877 aabe b942 a4be 8026 20be
00000320: 1885 2cbd 084e 0fbf 692e a8bf fab1 163f
00000330: f115 33bf 1d8a ef3d 1cac 393f 96c8 40be
00000340: 38a1 e2be b975 283f a878 e5be 7658 3dbd
00000350: 783f 0ebe 9e30 03be bcac ddbd c437 d0be
00000360: 1bc8 073e 9cfa 7cbf e2ca 743e 756a f73e
00000370: c5ba b2bd 2249 d23e 07bc d33e 4d9e 0ebf
00000380: 9ec5 1bbf e74f f33e bc9e b0be 3072 f4be
00000390: b7c2 afbd cf44 efbc b797 bbbe 26ad c23e
000003a0: f2c5 05bf 4a09 e03d 0b25 abbe f671 0bbf
000003b0: 58b0 34bf fde5 0c3d 0222 1f3e 7365 543d
000003c0: a31c b23d 8908 143f ac03 993d c07d 95bb
000003d0: 7954 94be 6403 c03c 8f64 6b3f 2873 c13b
000003e0: dd49 3b3f 0cb3 3cbf 3df6 0c3f 5cd6 6abd
000003f0: ee8d fa3d 0b26 8a3e 7df6 e2be 52dd d63e
-0.38326234 0.32056338 0.07151439 -0.36910737 0.39448225 -0.0772536 -0.30663523 -0.04513886
0.30211753 -0.1814777 -0.54426247 0.56116575 -0.043350935 0.6853487 0.36759356 0.20509045
-0.6460051 -0.09634095 0.0999685 -0.0747995 0.6401841 0.27877557 -0.21141684 -0.39417082
-0.20765576 -0.49048656 0.2696492 0.19880073 -0.78907424 0.22509013 0.42230123 -0.7694975
0.2572385 0.5687519 -0.22574697 -0.24633065 -0.8876233 0.40394178 0.23901132 0.63810015
0.8024319 0.21129525 -0.059848867 -0.08989626 -0.46087173 0.17771764 1.0059313 0.73561656
-0.39345917 0.4378491 0.09279296 0.16205117 0.32637793 0.25977808 -0.33668652 -0.20712695
0.4824124 0.78679997 -0.10093108 0.36912903 0.035518575 0.47769204 -0.14593126 -0.111988485
-0.21966746 -0.042719357 -0.38164467 -0.44723502 0.67583203 -0.0272509 0.2869777 0.6067461
0.1455351 -0.10164415 0.14090979 -0.6598751 -0.53898793 -0.24562608 -0.16922309 0.5398175
-0.46439502 -0.47351515 0.22013494 -0.036347307 0.57845914 -0.23798142 -0.20538235 0.11496891
-0.4173983 0.22691576 -0.6009789 -0.8281758 -0.27881092 -0.3564815 0.34405172 -0.22260042
0.9004256 0.76829517 0.5004436 0.05650347 0.49126038 0.14835112 -0.23986669 -0.44753492
0.41463232 0.6591816 -0.2629784 0.4206824 -0.08346902 0.27688003 -0.070553996 -0.5900448
0.19182277 0.8806066 1.0347235 0.774347 0.072054274 -0.42877266 -0.090863146 -0.25318787
-0.24564411 -0.540602 0.004930696 -0.32413223 -0.6198993 0.33188117 -0.07498944 -0.24199662
-0.4635427 0.103648916 -0.33842385 0.1694446 0.14179812 -0.48462623 -0.13871203 0.17305717
0.06376793 0.06905588 -0.14672135 -0.77284557 -0.058495007 -0.7833252 -0.05963494 -0.07335961
-0.47144777 0.31335175 -0.07692019 0.69781643 -0.021166736 0.97826356 -0.13499603 0.18641877
-0.44776335 0.420089 -0.6319484 0.041123234 -0.64835227 0.17580763 -0.16705383 -0.3222138
-0.5795493 0.30126065 0.24509533 -0.2168491 -0.26955065 -0.5062575 -0.32044446 -0.8260683
0.41743788 -0.34636137 -0.3231635 1.1012688 -0.7882885 0.09036866 0.16062327 -0.774937
-0.13241982 0.36746943 0.8291544 0.0018048082 1.0246539 0.12560184 0.12855402 -0.3601164
-0.49548736 -0.4880221 0.061015952 -0.21724905 0.36164913 -0.36138824 -0.5053091 -0.008070702
0.085268125 -0.32458794 -0.088185884 -0.32354334 0.55555177 -0.33294463 -0.32082155 -0.15639687
-0.042119116 -0.5597844 -1.3139163 0.5886532 -0.69955355 0.11696265 0.72528243 -0.18826517
-0.44263625 0.6580463 -0.44818616 -0.04622694 -0.13891399 -0.12811515 -0.10823962 -0.40667546
0.13259928 -0.988199 0.23905519 0.48323408 -0.0872703 0.4107142 0.4135439 -0.557103
-0.60848415 0.47521898 -0.34496105 -0.47743368 -0.08582061 -0.029207615 -0.36639187 0.38022727
-0.52255166 0.10939272 -0.334267 -0.54470766 -0.7058158 0.03439902 0.15540317 0.051854562
0.08696868 0.57825524 0.074714035 -0.0045621097 -0.28970698 0.023439117 0.91950315 0.0059036203
0.7315958 -0.73710704 0.5506323 -0.057333335 0.12234102 0.2698215 -0.4432868 0.4196573

network_body.linear_encoder.seq_layers.2.bias f4 [128]
00000000: 276c 89bc 5d8b b5bd 9afd f2bc c392 16bd
00000010: 008f c4bd 4397 acbd ece5 b6bc 8cac 4dbd
00000020: 6d39 ccbd 02f9 1cbd 95cc f1bc d557 cfbd
00000030: 85f3 76bd 6a66 1ebd 3472 8fbd 274a 2cbd
00000040: 8b59 87bd 40d7 bfbd cb90 c2bd 8531 06bd
00000050: e3d7 9fbc a7a4 bebd 8063 d5bc 2827 a6bd
00000060: 3855 e4bc 7d46 dabb 3696 babd 0421 3ebd
00000070: 31a2 98bd a206 e5bd c49d 8ebd c429 1bbc
00000080: 9a36 8fbd b63b 86bc f951 babd de9f cebd
00000090: 5479 1abd 1793 a4bd 63d4 6b3c fbeb cebd
000000a0: 6b61 d9bc ce55 5dbc 7335 23bd 740e 52bd
000000b0: c980 a4bd c5b3 e8bc d987 f4bc 1a88 34bd
000000c0: e7a0 37bc 1b57 87bc 96a5 0dbd e587 3dbd
000000d0: e012 1bbd dd38 ddbd 6f54 e8bc 3d2a 91bd
000000e0: 6f8b 4dbd 755c 25bd d905 50bd 5b7a 94bd
000000f0: 6231 80bd af29 b6bd 51f0 d7bd 70f3 c1bd
00000100: 461a 90bd 98f3 7fbd 14fa 43bd 4bcc bdbd
00000110: a7f5 ccbc 69f1 c7bd e37b 9cbc 5304 fdbc
00000120: 0a8f 49bd 8cd4 25bd c795 1dbd 0dfd 72bc
00000130: 80cc 94bc b1e6 893c 08d5 afbd f231 c6bc
00000140: 0793 bebd 8096 24bd adbc 843c 793e 9cbc
00000150: 8570 fa3c ce86 dfbc ae2c a8bd 9079 36ba
00000160: 1111 98bd 1e3a 26bc 10c4 8bbd 05eb a8bd
00000170: cbf5 57bd 65c7 54bc d841 37bd 3cb3 b4bd
00000180: 59fa d4bd ae8e 40bd 3c5d 6ebd 0b13 3fbd
00000190: 4890 a5bd f955 c8bd 843f 353b 3657 6b3c
000001a0: dd96 40bd 9603 cebd b9dc 9a3b 4e00 ffbc
000001b0: 8339 28bd 944c 13bd 785c 80bd ceee 8bbc
000001c0: e539 b0bd 94d2 47bd 1f92 adbb 68ca e3bd
000001d0: 859d 84bb 3b45 e1bc 13ba 91bd 6509 52bd
000001e0: 1a67 7bbb 2330 ea3b 1725 1ebd 182d a1bc
000001f0: 62b9 4fbc afc2 f6bc 9963 3dbb 0144 18bd
-0.016775204 -0.08864472 -0.029661942 -0.036761057 -0.095975876 -0.084272884 -0.022326432 -0.05021338
-0.099718906 -0.03832341 -0.029516498 -0.101241745 -0.060290832 -0.03867189 -0.070042044 -0.042062905
-0.06608876 -0.093672276 -0.09500273 -0.03276207 -0.019512122 -0.09308749 -0.026048422 -0.08112937
-0.027872667 -0.006661235 -0.09110682 -0.046418205 -0.074528106 -0.11182906 -0.06963685 -0.009470407
-0.06992836 -0.016385894 -0.09097666 -0.10089086 -0.037713364 -0.08035868 0.014393899 -0.101036035
-0.02653571 -0.013509227 -0.039845895 -0.051283315 -0.08032376 -0.028406033 -0.029849933 -0.04407511
-0.011207796 -0.016521027 -0.034581743 -0.046272177 -0.037859797 -0.108018614 -0.028360574 -0.070881344
-0.050181802 -0.040371377 -0.050786827 -0.072499 -0.06259419 -0.08894669 -0.105438836 -0.0947026
-0.07036261 -0.06248817 -0.047845915 -0.092674814 -0.02501948 -0.09762842 -0.019102043 -0.030885851
-0.04920868 -0.040485904 -0.038472917 -0.01483084 -0.01816392 0.016833635 -0.08585554 -0.024193738
-0.09305387 -0.04018259 0.016203249 -0.019072758 0.030571232 -0.02728596 -0.08211647 -0.0006960863
-0.0742513 -0.010145692 -0.06824505 -0.082479514 -0.05272464 -0.0129869925 -0.044740528 -0.08823249
-0.103993125 -0.04701107 -0.058194384 -0.04664902 -0.0808416 -0.09782023 0.0027656266 0.014364054
-0.047018874 -0.10059278 0.004726019 -0.031128075 -0.041070472 -0.035961702 -0.06267637 -0.017081644
-0.086047925 -0.048784807 -0.00529696 -0.1112259 -0.004047098 -0.027498832 -0.07115569 -0.05127849
-0.0038361014 0.0071468516 -0.03860959 -0.019674823 -0.012678476 -0.03012213 -0.0028898476 -0.03717423

network_body.linear_encoder.seq_layers.2.weight f4 [128, 128]
00000000: e95b fa3d 3218 14bd 709b 12bd ab3c 8a3c
00000010: 7045 173d c5e4 023c ce13 9e3d cdca 073e
00000020: 8132 1b3d b3c5 29bd 6e80 3ebe fa73 dbbd
00000030: 098a e63c 94bb bf3d 76fd 64be 83e8 683c
00000040: eb95 96be 5c77 0cbd f64f 613d c11d 4abe
00000050: 2f9f c23c 2046 723c b173 8bbd 8acb b23c
00000060: 5552 fd3d 860b bd3c 837e 0dbe 73a2 fe3d
00000070: 37b0 6cbe 034d 723c cb4d eabe df99 933d
00000080: dfda 34bd 9613 433e 32dd 09be ed72 033e
00000090: e34e 99bd 99e8 d03d 9436 13be 6e2e 613d
000000a0: 76fd 11bd 1407 443e 3259 fa3d 299f 67be
000000b0: 1454 9dbd 39c5 3ebd 3610 703d beba 2b3d
000000c0: dee9 b03d 58e1 4bbc 6565 1bbe 9476 42be
000000d0: 878f 41be c8cd ec3d 191d 0abe 1703 6dbd
000000e0: 2c90 1dbe b2c7 ba3d 113a 8fbd 6e71 653d
000000f0: 7252 82bd 8a74 8d3d b0af 813d f2d3 7f3d
00000100: 7352 54be ec28 d23c 636f a63d 034a 773e
00000110: 6d4c afbd 78b6 dcbc 2d7b 11be c011 543d
00000120: 2662 023e a605 a63d 2213 e23d 0bb0 b1bb
00000130: bb34 af3d c3a3 9bbd b287 c0bd 0320 54bd
00000140: fac9 c33d 6275 203c 2b65 5b39 5255 abbb
00000150: 4925 623d ad5d 0cbe b012 d33d a8d6 30be
00000160: 0152 d5bd bafd febc fdab 2f3e 1c54 e13d
00000170: 02a8 313e ebfe a0bd 6fbc 8d3d 6678 303d
00000180: 92aa 9e3d 727a 1e3d 3919 6dbd b7f6 db3d
00000190: 4c0c 283e 8d54 bf3d 6141 aa3d e97f 23bd
000001a0: 8ed0 2dbd 5a48 e6bd 9187 c3bd 81cb 68be
000001b0: 31d6 af3d 77ad 96bd 4eef f53d 3df3 2f3e
000001c0: 761a 0b3e ae43 053c 2a0a b53c a531 48bd
000001d0: 7eb7 d8bd ffa9 25bd e66e fd3d 2d80 a93d
000001e0: fd6f 42be 8571 57be 1329 5b3d 6415 9ebd
000001f0: 68c4 0f3e d985 183c 1ff2 b13b 591d 423e
00000200: ae70 893d db40 da3d f7d3 c8bd 2812 dcbd
00000210: 70d0 d23d 4de9 a7bd 491a 87bd 94ff 32be
00000220: 5591 19be 848a 10bc a978 02be 4899 e6bd
00000230: d949 953a 09a9 a03d 617c 08bd dc71 46bd
00000240: 2ba4 913d 32cc 833e 521e e9bc 6a62 dbbd
00000250: 7b0b 9c3c e8c0 923d 9fc0 10bb d6b5 ab3d
00000260: 4045 f13c 0776 efbd e91f a73d bec8 3ebd
00000270: 9de6 ef3c 26d7 a03c 7286 c8bc 84ac 5a3e
00000280: 6332 d1bd e13a 623b 6e6c 80bc 7bef bbbd
00000290: 3c75 273e f2cf b639 2028 0fbe e5a6 cdbd
000002a0: 37bf 37be a0fb 093e d5c9 07be 690f c5bc
000002b0: 2390 b33d d383 1a3d 6a98 5abc 75fd e53c
000002c0: f8b7 3abd 567b a23c 72cf 193d 6562 443d
000002d0: 787e 833d c3e3 063e 187c 93be 7fd0 023e
000002e0: 8ed3 d4bd 012f c3bd a3c9 0cbe adb9 21bd
000002f0: f5c4 aebd 251f 823c d62a 103d 0219 933b
00000300: 2bd9 ebbd 193a a23c f9bf 95bd 7269 fabc
00000310: 5536 febd 3881 a5bc dcf9 06bd a30e a1bd
00000320: f954 153e cdef c93c 0f79 4dbd d72e 09bd
00000330: 3642 383d 1b92 a3bd 8a19 123e a978 8cbd
00000340: bf0d 20bd 4165 68be 0f90 543d cab4 a13e
00000350: bacd e4bb 1bc6 39be c910 55bd bfdf c1bd
00000360: 290d a33d 6a8f 7c3a 0b29 083c bf56 1bbd
00000370: fbdf 3ebe 4692 b7bd 3039 813d 8efe dc3c
00000380: 3b07 71bd 3854 6dbd d01a e33c eee5 10be
00000390: 5724 94be 6037 0abe cc1f 223c 54cc ce3d
000003a0: 150a eabc fa9e febd 84ab 2b3e 88d6 abbc
000003b0: 8b54 05be 3226 23be 072d 603d b431 a7bd
000003c0: 3784 a9bd d00c 0d3d 7a75 72bc 5144 013d
000003d0: 9c56 c6be f48a b9bd ab68 2fbe 312b 15be
000003e0: 403c 613d ed9b 18be 12ff 96bd 4432 e9bc
000003f0: c7f4 0ebd 8b38 e4bd 563c e23d 1633 9ebc
0.12224562 -0.036155887 -0.035792768 0.016874632 0.036931455 0.007989113 0.07718621 0.13260956
0.03788996 -0.041448306 -0.1860368 -0.1071548 0.028141992 0.093619496 -0.22362313 0.014215591
-0.29411253 -0.034293517 0.055007897 -0.19737913 0.023757545 0.014787227 -0.06809176 0.02182557
0.12369219 0.023076784 -0.13817792 0.124333285 -0.23114096 0.014788869 -0.45762476 0.07207083
-0.044154044 0.1905044 -0.13463286 0.1283681 -0.074857496 0.102006145 -0.14376289 0.05497592
-0.03564211 0.19143325 0.12224044 -0.22619309 -0.07682052 -0.046574805 0.05860921 0.041926138
0.086383566 -0.012443863 -0.15175398 -0.18990546 -0.18902408 0.11562687 -0.13487662 -0.057864275
-0.15387028 0.0912012 -0.06993497 0.056016378 -0.063633814 0.06906994 0.06332338 0.062457986
-0.20734577 0.025654279 0.08126714 0.24149327 -0.08559499 -0.026942477 -0.14207144 0.05177474
0.12732753 0.08106546 0.110388055 -0.0054225973 0.085549794 -0.075995944 -0.09400882 -0.05178834
0.09560008 0.009793611 0.00020923156 -0.005228677 0.05521134 -0.1370761 0.10306299 -0.17269385
-0.10416032 -0.031126846 0.17155452 0.11002371 0.17349246 -0.07861122 0.069207065 0.04308357
0.077473775 0.03869099 -0.057885382 0.107404165 0.16410941 0.09342299 0.08313251 -0.039916907
-0.04243522 -0.11244269 -0.095473416 -0.2273388 0.08585776 -0.073573045 0.12008534 0.17182632
0.13584313 0.008133812 0.022099573 -0.04887547 -0.10581873 -0.040445324 0.12374668 0.08276401
-0.18988033 -0.21039398 0.05350597 -0.07718924 0.14039767 0.0093092555 0.0054304744 0.18956508
0.06710945 0.106569014 -0.09806054 -0.107456505 0.102936625 -0.081987955 -0.0659681 -0.17480308
-0.14996846 -0.008822087 -0.1274134 -0.11259705 0.0011389806 0.07844741 -0.033321742 -0.04844843
0.07111391 0.25741726 -0.02845684 -0.1071213 0.019048443 0.071657 -0.0022087467 0.08384292
0.029451966 -0.11692434 0.08160383 -0.04657816 0.02928477 0.01963384 -0.024478171 0.21354872
-0.10214689 0.0034519958 -0.015676703 -0.09176537 0.16353315 0.00034868676 -0.1398015 -0.10041598
-0.17944036 0.13474894 -0.13260587 -0.0240552 0.08767726 0.037723374 -0.013342002 0.02807496
-0.045585603 0.019834202 0.03755135 0.0479454 0.064206064 0.13172822 -0.28805614 0.12774847
-0.10391913 -0.0953045 -0.13748793 -0.039483715 -0.0853366 0.015883991 0.0351971 0.004489065
-0.11516031 0.019803094 -0.073120065 -0.030567858 -0.12412707 -0.020203218 -0.03295313 -0.0786412
0.14583196 0.024650479 -0.05016428 -0.033491936 0.04498502 -0.07986852 0.14267555 -0.068589516
-0.03907561 -0.22694875 0.051895197 0.31583244 -0.0069825323 -0.18141977 -0.05201796 -0.09466504
0.079614945 0.00096344075 0.008310567 -0.037924524 -0.1864013 -0.08963446 0.06309736 0.02697685
-0.058844786 -0.057941645 0.027722746 -0.14150211 -0.28933975 -0.13497686 0.009895276 0.10097566
-0.02856926 -0.12432666 0.16764647 -0.02097632 -0.13020532 -0.15932539 0.05473044 -0.08163777
-0.08277171 0.034436047 -0.014798516 0.031559292 -0.38737953 -0.09059706 -0.17129771 -0.14567257
0.0549891 -0.14903231 -0.073728696 -0.028466351 -0.034901407 -0.11143597 0.110466644 -0.019311469
