Assets/ML_Brain/MoveToGoal.onnx (onnx, 72639 bytes, 7 tensors)

action_model._continuous_distribution.log_sigma f4 [1, 2]
0	0xbdba5773	-0.09098711
1	0xbe0bf26a	-0.13666692

action_model._continuous_distribution.mu.bias f4 [2]
0	0xbb24ac6e	-0.002512719
1	0xba840a47	-0.0010073864

action_model._continuous_distribution.mu.weight f4 [2, 128]
0	0xbceb5085	-0.028724918
1	0x3d3de0a6	0.04635682
2	0xbce0254a	-0.02736153
3	0x3d32b185	0.043626327
4	0x3d28573c	0.04109882
5	0xbd101715	-0.035178263
6	0xbd622100	-0.055207253
7	0x39d7cba3	0.00041159717
8	0x3d309467	0.043110278
9	0x3c2171da	0.0098538045
10	0xbbcb642b	-0.0062070093
11	0xbd15ff18	-0.03662023
12	0xbd2100fd	-0.039307583
13	0xbcb7f634	-0.022456266
14	0x3c40e254	0.011772711
15	0x3d0c8e27	0.034315255
16	0x3d76280f	0.060096797
17	0xbc9e959d	-0.01935845
18	0x3cd8667b	0.026416054
19	0x3c7fa435	0.015603115
20	0xbc9c74fc	-0.019098751
21	0xbc60811f	-0.01370266
22	0xbd2b9f5c	-0.041900024
23	0x3d13e935	0.036111075
24	0x3c8d03d6	0.017213743
25	0xbd17ab1e	-0.037028424
26	0x3c914170	0.017731398
27	0xbcd8c9dd	-0.026463443
28	0xbd26de4f	-0.040739354
29	0xbce67272	-0.028130744
30	0xbbe34b60	-0.0069364756
31	0xbc706531	-0.014672563
32	0x3c79c316	0.015244266
33	0xbcfccbcf	-0.030858902
34	0x3b1f0020	0.002426155
35	0xb963d4e0	-0.00021727709
36	0xbd521ba1	-0.05129588
37	0x3b6d908a	0.0036249482
38	0x3bcc759e	0.006239607
39	0x37a08e6a	1.9139803e-05
40	0xbcbc9100	-0.02301836
41	0xbd547f12	-0.051878996
42	0x3c88210d	0.016617322
43	0xbc65ab9f	-0.014017968
44	0x3d16d6f3	0.036826085
45	0xbd0cf9d1	-0.03441793
46	0xba631097	-0.0008661835
47	0xbb2b4351	-0.0026132653
48	0xbd4c5719	-0.04988775
49	0xbc445752	-0.011983709
50	0x3ae4cc22	0.0017455856
51	0x3cc0d4e0	0.023539007
52	0xbcc27830	-0.02373895
53	0x3d34ec41	0.04417062
54	0x3d811655	0.063030876
55	0x3ca91dd2	0.020644102
56	0x3d0e316c	0.0347151
57	0x3c3620d5	0.011116226
58	0x3ccd12fe	0.02503347
59	0xbafc2174	-0.0019236044
60	0x3d3d924a	0.04628209
61	0xbb5c5933	-0.0033622503
62	0xbc1f326e	-0.009716613
63	0x3d129c23	0.035793435
64	0x3d156fa8	0.036483437
65	0x3d0eb49c	0.03484021
66	0x3bb0a56f	0.005390815
67	0xbd55c41b	-0.052188974
68	0x3c579bee	0.013159735
69	0xbbb634e0	-0.0055605024
70	0x3d5e159b	0.054219823
71	0x3cbad188	0.02280499
72	0x3c18088f	0.009279384
73	0xbbaae8af	-0.0052157263
74	0xbc9a4812	-0.018833194
75	0x3c06a6a3	0.00821844
76	0x3d21984d	0.039451886
77	0xbcca0cbb	-0.024664273
78	0x3cbb276a	0.022845943
79	0xbd5ae0c1	-0.053437
80	0x3cc49f00	0.024001598
81	0x3d62960e	0.055318885
82	0x3b5b4880	0.0033459961
83	0x3c6090c6	0.013706392
84	0x3aec74ee	0.0018040219
85	0x3d3c7f48	0.046019822
86	0x3c64b568	0.013959266
87	0xbd624a25	-0.05524649
88	0xbb8e57ca	-0.0043439614
89	0x3d0e9d79	0.034818146
90	0xbca0741f	-0.01958662
91	0xbd26de72	-0.040739484
92	0x3d696caa	0.056988396
93	0x3ccc9f6d	0.024978364
94	0xbc846b6d	-0.016164506
95	0xbd656dad	-0.056012798
96	0xbcbb5bc2	-0.022870902
97	0xbb9445df	-0.004524931
98	0x3d21c125	0.039490838
99	0xbbc94ea0	-0.006143406
100	0xbcaee48d	-0.021349216
101	0x3a969377	0.001148804
102	0xbd522f99	-0.051314924
103	0x3bdb3904	0.0066901464
104	0x3d27490c	0.040841147
105	0xbc333bf3	-0.010939586
106	0xbd25fc8c	-0.04052405
107	0x3b81a9ef	0.0039570252
108	0x3a928695	0.0011179025
109	0x3d2db99e	0.042413346
110	0x3cdeb0a0	0.02718383
111	0xbd57bf8b	-0.052672904
112	0x3aebf1bf	0.0018001123
113	0x3c8ec21a	0.01742654
114	0xbd49bb0f	-0.04925066
115	0x3c1f4690	0.009721413
116	0xbc58b8a7	-0.013227618
117	0xbd01281a	-0.031532384
118	0xbcce3007	-0.025169386
119	0x3c9370ac	0.017998062
120	0xbcbac7f1	-0.022800418
121	0x3cd97147	0.026543273
122	0xbc8f9697	-0.017527862
123	0xbd2046a2	-0.03912986
124	0xbc45331f	-0.012036114
125	0x3a3285c1	0.0006810092
126	0xbbfdaa54	-0.007741252
127	0x3d216c4f	0.03940993
128	0xbc873bfa	-0.016508091
129	0xbcaa7066	-0.020805549
130	0x3cb12aa6	0.021626782
131	0x379b4e33	1.8513854e-05
132	0x3b9f8bd5	0.004868964
133	0xbcb60606	-0.02221967
134	0x3d52307f	0.05131578
135	0x3c678c02	0.014132502
136	0x3d4457ec	0.04793541
137	0x3d01ffdc	0.031738147
138	0xbca7167e	-0.020396467
139	0xbd19c91f	-0.03754532
140	0x3b0ea3b1	0.0021765048
141	0x3c5612a3	0.013065967
142	0x3d819e29	0.06328995
143	0x3d0e9c6e	0.03481715
144	0x3d48adfc	0.04899405
145	0xba9acbcb	-0.0011810003
146	0x3b81bc56	0.003959219
147	0x3b9d1cb9	0.004794684
148	0xbd0edcf9	-0.034878705
149	0xbb153a37	-0.0022770294
150	0x3af8881e	0.0018961465
151	0x3d276813	0.040870737
152	0x39e8d61d	0.00044410015
153	0x3c36c3d7	0.01115509
154	0x3d4d0344	0.050051942
155	0xbd337363	-0.043811213
156	0xbd00b513	-0.031422686
157	0xbd0f102a	-0.034927525
158	0xbc91ede4	-0.01781363
159	0x3c9d6cc1	0.019216897
160	0x3ca2ec1c	0.019887976
161	0xbcbbe7db	-0.022937706
162	0x3bc46ba1	0.0059942757
163	0xbd005c6c	-0.03133814
164	0x3bc4f18d	0.0060102404
165	0xbca721d9	-0.020401882
166	0x3cdc926d	0.02692529
167	0x38a889de	8.036544e-05
168	0x3d3cc29e	0.04608404
169	0xbd10aac8	-0.03531912
170	0xbd2063cd	-0.039157677
171	0x3b1647f4	0.002293107
172	0xbd3eb879	-0.046562646
173	0xbc960ba5	-0.0183161
174	0xbb1c0945	-0.0023809236
175	0xbcd80a84	-0.026372202
176	0xbd12852e	-0.03577154
177	0x3cc18bc0	0.023626208
178	0x3c839506	0.01606227
179	0xbcdcafda	-0.026939321
180	0x3d0965c1	0.033544306
181	0x3d3dd7f4	0.046348527
182	0xbc9e4f26	-0.01932485
183	0xbcde1367	-0.027108861
184	0xbd407bb9	-0.04699299
185	0xbd03c698	-0.032171816
186	0x3cc840bd	0.024444932
187	0xbd1c7efa	-0.03820703
188	0xbcb554c2	-0.022135142
189	0x3c50ce6d	0.012744528
190	0x3caecd62	0.021338169
191	0xbd6a2ce8	-0.057171732
192	0x3d73504d	0.059402753
193	0xbd2fddc9	-0.04293612
194	0x3cd0e7a1	0.025501074
195	0xbd1b584d	-0.037926007
196	0xbc90aa2f	-0.017659275
197	0x3bd1f78b	0.0064076832
198	0x3cbfc633	0.023409938
199	0xbb9b80b7	-0.0047455686
200	0xbd510da0	-0.051038384
201	0x3cf283c9	0.029603856
202	0x39b784e7	0.000350035
203	0xbde76bd8	-0.112998664
204	0x3d1f4672	0.03888554
205	0xbcb04f2e	-0.02152213
206	0x3d9080cd	0.07055817
207	0x39222d1a	0.00015466326
208	0xbc9dadbd	-0.019247884
209	0x3cb71b39	0.022351848
210	0xbd0dc781	-0.03461409
211	0x3d4ef5e4	0.05052747
212	0x3d059a8b	0.032618087
213	0x3cac6d9c	0.02104836
214	0xbc08e377	-0.008355013
215	0x3d0e858c	0.03479533
216	0xbcc3794a	-0.023861546
217	0x3cb411e3	0.021981185
218	0xbd0e95f9	-0.034810994
219	0x3c4cc575	0.012498249
220	0xbcd83672	-0.026393149
221	0xbd2c4f9f	-0.04206812
222	0xbceaf7ed	-0.028682673
223	0x3b7647ca	0.003757941
224	0xbcf2c5f4	-0.029635407
225	0xbc92afdc	-0.017906122
226	0x3d0d0d73	0.034436654
227	0xbc8a58b6	-0.016888004
228	0x3d0172db	0.031603675
229	0xbda89831	-0.08232153
230	0xbc88cc21	-0.016698899
231	0xbca4fc04	-0.020139702
232	0x3d4da828	0.050209194
233	0xbc85bae8	-0.016324475
234	0xbcf0d866	-0.029400062
235	0x3b81c54e	0.003960288
236	0x3cd68ac4	0.026189215
237	0x3c9c5cf6	0.019087296
238	0xbc76a40f	-0.015053763
239	0x3d049d91	0.03237683
240	0xbc150982	-0.009096505
241	0xbd01301f	-0.031540032
242	0xbb9bb567	-0.0047518495
243	0xba0f8637	-0.00054750167
244	0x3c2f77da	0.010709727
245	0xbd1d63a7	-0.038425114
246	0xbc859557	-0.016306562
247	0xbd96ff2f	-0.07372891
248	0x3cd5f148	0.026116028
249	0x3be9df0d	0.0071371854
250	0xbd22fd8e	-0.03979259
251	0x3c80bb65	0.015714357
252	0xbb79aa57	-0.0038095915
253	0xbcccf0ce	-0.025017168
254	0xbbb2d326	-0.0054572998
255	0xbcebd677	-0.028788788

network_body._body_endoder.seq_layers.0.bias f4 [128]
0	0x3bc23a2e	0.0059273457
1	0x3bf4e34c	0.007473385
2	0x3d1d3b6f	0.03838676
3	0x3b60b4a4	0.0034287358
4	0x3c90ef9b	0.017692378
5	0x3d389f1a	0.045073606
6	0x3d414d28	0.047192723
7	0xbaecaed6	-0.0018057476
8	0x3b68b937	0.0035510787
9	0x3bdc6ae6	0.0067266105
10	0x3ad2ab69	0.0016072813
11	0xbb7bdc0a	-0.0038430714
12	0x3c1a8518	0.009431146
13	0x3cbfa584	0.023394354
14	0x3c939f8b	0.018020412
15	0x3c3cae70	0.0115161985
16	0x3d08c5a8	0.033391625
17	0x3c3b8842	0.011446061
18	0xbb977a81	-0.004622758
19	0xbbc3bc18	-0.0059733503
20	0x3be5f943	0.0070182397
21	0x3d50f414	0.05101402
22	0x3be83e43	0.0070875003
23	0x3d5c1809	0.05373386
24	0xba9702b2	-0.0011521189
25	0x3b9224c7	0.0044599506
26	0x3bbc77ca	0.0057515847
27	0x3ca74f9e	0.020423707
28	0x3ca8d618	0.0206099
29	0xbb278e3c	-0.0025566956
30	0x3a2bdd16	0.00065560767
31	0xbc03d9fc	-0.008047577
32	0x3bdc9062	0.006731079
33	0x3d10e3e3	0.03537358
34	0x3bc27a6b	0.0059350035
35	0x3d8c92d7	0.06863945
36	0x3d1753c3	0.036945116
37	0x3b0dfd06	0.0021665706
38	0xb9323f0d	-0.00016998891
39	0x3c8375b9	0.016047345
40	0xbc84fbe1	-0.016233386
41	0x3cd9efa4	0.026603527
42	0x3cbf422c	0.023346983
43	0x3c44f2c4	0.01202077
44	0xb92256be	-0.00015481838
45	0xbc6905fe	-0.01422262
46	0x3bef4827	0.0073023024
47	0x3ba672ba	0.0050795944
48	0x3b3a7ec9	0.0028456917
49	0x3d3a3e6a	0.04546968
50	0x3d2cff55	0.04223569
51	0xbb90fbf4	-0.0044245664
52	0x3c305f7d	0.010764954
53	0x3bb9c306	0.0056690006
54	0xbbc49a9a	-0.0059998753
55	0x3b7cd80b	0.003858092
56	0x3b845191	0.004038044
57	0x3c7c4f8e	0.015399827
58	0x3b5e22ba	0.003389521
59	0x3d521572	0.051289983
60	0xbaeee5e7	-0.0018226475
61	0xbc7fb25c	-0.015606489
62	0xbadaddbc	-0.0016698162
63	0x3ca2ef3a	0.019889463
64	0x3c9e07a5	0.019290755
65	0x3c93a7e1	0.018024387
66	0x3d62cee9	0.055373106
67	0x3a8d429f	0.0010777301
68	0xbc285754	-0.010274727
69	0xbaabb52d	-0.0013100259
70	0x3c68deec	0.014213305
71	0xbbd7cb02	-0.0065854797
72	0x3c475ec7	0.012168593
73	0x3d2039a5	0.039117474
74	0x3cf2efda	0.029655386
75	0xba75682c	-0.0009361531
76	0xb9f4f1b3	-0.00046719387
77	0xbbc4629b	-0.0059932
78	0x3c5f753d	0.013638792
79	0xbba32f7e	-0.0049800267
80	0x3a4f2725	0.00079022563
81	0x39020d71	0.00012402773
82	0xbc8bfb9e	-0.017087754
83	0x3c2b7aec	0.010466319
84	0xba6482fd	-0.00087170285
85	0xbb1c7cfa	-0.0023878203
86	0x3d804c59	0.06264562
87	0x3c0e09bb	0.008669312
88	0xbb20eca0	-0.0024555102
89	0xbc9066be	-0.017627116
90	0x3b575b28	0.003286073
91	0xbb50d473	-0.003186491
92	0xbd4057ab	-0.046958607
93	0x3b86c845	0.0041132295
94	0xbc78460c	-0.015153419
95	0x3c938358	0.018006966
96	0x3b7a96d2	0.0038236869
97	0xbc108acc	-0.008822154
98	0x3cd7ee1c	0.026358657
99	0x37a646e8	1.982176e-05
100	0x3b683ca5	0.0035436538
101	0xbabb6a2c	-0.001429861
102	0xbb5b0f0e	-0.0033425721
103	0xbbcd9d17	-0.00627483
104	0x3ad73c3b	0.0016421148
105	0x3c81c47a	0.015840758
106	0xbbe2b689	-0.0069187325
107	0x3c79e906	0.015253311
108	0x3b50705f	0.003180526
109	0x3ca5f797	0.020259662
110	0xbc36f3db	-0.011166538
111	0x3cee51cc	0.029091738
112	0xbb1b41d3	-0.0023690357
113	0xbc27358e	-0.0102056395
114	0xbcee9bbf	-0.029127
115	0xbbbf36db	-0.0058353967
116	0x3b195824	0.0023398483
117	0x3bf4ac28	0.0074668117
118	0x3c7623b8	0.015023164
119	0xbba765da	-0.005108577
120	0x3bf38909	0.0074321073
121	0xbbbd237e	-0.0057720533
122	0x3cba7ce5	0.022764632
123	0x3cfa4812	0.030551944
124	0x3d3f298d	0.046670485
125	0x3ae276c8	0.0017277831
126	0xbba68e8d	-0.0050829113
127	0x3cc6d9ce	0.02427378

network_body._body_endoder.seq_layers.0.weight f4 [128, 6]
0	0x3f4378dc	0.7635629
1	0x3e7cd539	0.24690713
2	0xbe8fe3cf	-0.28103492
3	0xbeabb1fd	-0.33534232
4	0x3f018787	0.50597423
5	0x3d76de9b	0.060270887
6	0xbe1f8a8c	-0.15580195
7	0x3e9175df	0.2841024
8	0xbf4ab43b	-0.7918126
9	0xbb18ae81	-0.0023297372
10	0xbe135569	-0.1438805
11	0x3eb628bd	0.35577956
12	0x3efeb2f8	0.49745917
13	0x3ef9348b	0.486729
14	0xbe797d30	-0.24364161
15	0xbe7b028b	-0.24512689
16	0x3e7d406d	0.24731608
17	0x3e792239	0.24329461
18	0x3f0f23c9	0.5591398
19	0x3dd24cd0	0.10268557
20	0xbedee252	-0.43532044
21	0xbdc5bb43	-0.09654858
22	0x3dee3856	0.11631839
23	0xbef19747	-0.47185728
24	0x3d75cee9	0.060011778
25	0xbc229c65	-0.009924983
26	0xbeb6c688	-0.35698342
27	0x3e17a655	0.14809544
28	0x3e65ba8c	0.22434443
29	0x3e32e387	0.17469607
30	0xbf33b1e8	-0.7019334
31	0x3dde8ccf	0.10866701
32	0x3d975a74	0.073902994
33	0xbe74bd5a	-0.23900357
34	0xbe91f873	-0.28509864
35	0x3e505931	0.20346524
36	0xbd2b3efa	-0.041808106
37	0x3ef48eff	0.47765347
38	0xbe5b8875	-0.21438773
39	0xbec2f8d2	-0.3808046
40	0x3ef00238	0.46876693
41	0xbd6e8b14	-0.058238104
42	0xbe0e23f6	-0.13880906
43	0x3e72ef05	0.23723991
44	0xbe63755c	-0.22212738
45	0x3eaeb838	0.34124923
46	0x3ee104ae	0.43948883
47	0x3ee8698c	0.45393026
48	0xbf4d760d	-0.80258256
49	0x3d72bbc8	0.059261113
50	0xbd83ba11	-0.06431974
51	0xbe4dbbd9	-0.2009119
52	0x3e242acd	0.16031952
53	0x3f05a640	0.522068
54	0xbf30ad20	-0.6901417
55	0xbed67ee0	-0.41893673
56	0x3f3df31e	0.7419909
57	0xbe96b835	-0.29437414
58	0xbeb31383	-0.34975824
59	0x3e1a623b	0.15076534
60	0xbc31af73	-0.010845053
61	0xbe77b2f6	-0.24189362
62	0xbeb9ee46	-0.363146
63	0xbed45794	-0.41473067
64	0xbdcdf600	-0.100566864
65	0xbe9189c3	-0.28425416
66	0xbd811145	-0.06302122
67	0xbea80fa1	-0.32824424
68	0x3eddceaf	0.4332175
69	0x3d8a16b2	0.0674261
70	0x3ea4372c	0.32073343
71	0xbe42aae0	-0.19010496
72	0x3dd61f71	0.10455216
73	0x3d4f54cd	0.05061798
74	0xbec26a8f	-0.37971923
75	0x3cf4dcb9	0.029890405
76	0xbefa7d5e	-0.48923773
77	0x3e5497e3	0.20761065
78	0xbe0cc01a	-0.13745156
79	0xbf253bf3	-0.645446
80	0x3f002be3	0.50066966
81	0xbf044f7e	-0.51683795
82	0x3dad3366	0.08457069
83	0x3cd7d7ca	0.026348013
84	0x3f131e5b	0.57468194
85	0xbf274144	-0.6533396
86	0x3eb5a1b4	0.35474932
87	0xbe5d1379	-0.2158946
88	0xbecabd1a	-0.39597398
89	0x3f37e0e2	0.7182752
90	0xbd346266	-0.044039153
91	0xbe873e70	-0.26414824
92	0xbdb5ff9f	-0.088866465
93	0x3eaca818	0.33721995
94	0xbd6f5ab5	-0.058436114
95	0x3ef7afa3	0.48376188
96	0x3d655a52	0.05599434
97	0x3ca70956	0.020390194
98	0xbeed3846	-0.46331996
99	0xbd8022c2	-0.062566295
100	0x3eb5e189	0.35523632
101	0xbdc6f31b	-0.097143374
102	0xbe51a04e	-0.20471308
103	0x3e46762f	0.19381021
104	0x3c2107c9	0.009828516
105	0x3ef4b001	0.4779053
106	0xbd0789d6	-0.033090435
107	0x3e7ac1b6	0.24487957
108	0x3e831d22	0.25608164
109	0x3f41f67d	0.75766736
110	0xbcf0f7c1	-0.029415013
111	0xbe4d59da	-0.20053807
112	0x3e856b3c	0.26058376
113	0x3f57ca82	0.8429338
114	0x3ddd82d9	0.10815973
115	0x3ca582c3	0.020203954
116	0x3dd09c64	0.10186079
117	0x3f117d7c	0.568321
118	0xbda39df1	-0.07989109
119	0x3e2ce250	0.16883206
120	0xbeb04f12	-0.34435326
121	0x3f00ecc2	0.50361264
122	0x3e2d53f0	0.16926551
123	0x3ed90e86	0.42393893
124	0xbef430cd	-0.47693482
125	0x3e1065ff	0.14101408
126	0x3f24876d	0.64269143
127	0xbea915bd	-0.33024397
128	0x3e673e7c	0.2258243
129	0xbc8f6942	-0.017506246
130	0x3dce10f4	0.10061827
131	0x3ec17fff	0.37792966
132	0x3ef594a9	0.4796498
133	0x3f399974	0.72499776
134	0x3f7dee93	0.9919216
135	0x3e2d4596	0.16921076
136	0xbe24b492	-0.16084507
137	0x3de81bce	0.11333428
138	0xbed1f18e	-0.41004604
139	0x3eb95ffa	0.36206037
140	0xbf4bc1c5	-0.79592544
141	0x3e57ad74	0.21062261
142	0x3c27a040	0.010231078
143	0xbe184015	-0.14868195
144	0x3e5aeb58	0.21378839
145	0xbd67e209	-0.05661205
146	0x3e853063	0.2601348
147	0x3e3dfd97	0.18553768
148	0x3e4e470c	0.2014429
149	0x3ead3920	0.33832645
150	0x3f8030a5	1.0014845
151	0x3f38801b	0.72070473
152	0xbc14eec6	-0.009090131
153	0xbf30e477	-0.6909861
154	0x3edb77ec	0.4286493
155	0xbeaf265a	-0.34208947
156	0xbf1e9ad3	-0.61954993
157	0x3c97011f	0.018433152
158	0xbead446b	-0.3384126
159	0x3f031cbd	0.51215726
160	0xbe6d3b23	-0.2316709
161	0xbe9ec1d3	-0.3100725
162	0x3e08cbbb	0.13358967
163	0x3e2c1898	0.16806257
164	0x3efa299a	0.48859864
165	0xbdbcfd26	-0.09227972
166	0xbe9bfdd2	-0.30467087
167	0xbe46ccec	-0.19414109
168	0x3e1804f5	0.14845641
169	0xbe593992	-0.21213368
170	0x3ed273d1	0.41103986
171	0xbc9e1ef4	-0.019301869
172	0x3e9c3c10	0.30514574
173	0x3e766bab	0.2406451
174	0x3ecf56d6	0.40495938
175	0xbeffd507	-0.49967214
176	0x3e9b72e0	0.3036108
177	0xbe35b003	-0.17742924
178	0x3f339337	0.7014651
179	0xbf315163	-0.6926481
180	0xbe293bb0	-0.16526675
181	0x3f264ff3	0.6496574
182	0x3ede4c1c	0.43417442
183	0x3ea094cb	0.3136352
184	0x3eb04258	0.34425616
185	0xbed39810	-0.41326952
186	0xbdbce3a8	-0.092231095
187	0xbe4a9530	-0.19783473
188	0xbeaebba8	-0.34127545
189	0x3e35af68	0.17742693
190	0xbee1ab46	-0.44075984
191	0x3e278cdf	0.16362332
192	0xbe36afe7	-0.17840539
193	0x3e90adf3	0.28257713
194	0xbed74978	-0.4204824
195	0x3ddd1011	0.1079408
196	0x3ef2b86b	0.47406325
197	0xbe668d8d	-0.22514935
198	0xbf0c35d6	-0.5476965
199	0xbf68e37a	-0.909721
200	0xbe059480	-0.1304493
201	0x3d8c22ce	0.06842576
202	0x3e453b24	0.19260842
203	0x3e4e5cac	0.20152539
204	0x3ec1c61c	0.37846458
205	0xbd87211c	-0.06598112
206	0x3eb8a611	0.360642
207	0xbe09e638	-0.13466728
208	0x3eb34f10	0.35021257
209	0xbe2e7096	-0.17035136
210	0xbf079aa2	-0.52970326
211	0x3e042989	0.1290647
212	0xbf494610	-0.7862253
213	0xbd8c6ced	-0.068567134
214	0x3e8a0d55	0.26963297
215	0x3f0adcaa	0.54242957
216	0xbee74038	-0.45166183
217	0xbeac1db5	-0.33616415
218	0xbe31f46c	-0.17378396
219	0x3f1596b6	0.5843309
220	0xbe908a48	-0.282305
221	0xbcb6d0fb	-0.022316447
222	0x3dcb14fe	0.09916113
223	0xbece2b35	-0.4026734
224	0x3eb30c38	0.3497026
225	0xbd89b98a	-0.06724842
226	0x3eea4133	0.45752868
227	0xbe23bc92	-0.15989903
228	0xbea1cb10	-0.31600237
229	0xbdbd0f7e	-0.092314705
230	0x3db66737	0.089064054
231	0xbc4aa9ed	-0.012369615
232	0xbe910a1f	-0.28328034
233	0x3d01b32e	0.03166502
234	0x3c295303	0.010334733
235	0x3d0b5b92	0.034022875
236	0xbec7bc9f	-0.39011094
237	0xbed17925	-0.40912738
238	0xbe6188ad	-0.22024794
239	0xbda91ffc	-0.08258054
240	0xbe87ec82	-0.2654763
241	0xbe5ca11a	-0.2154583
242	0xbe489e4a	-0.19591632
243	0x3de9b01f	0.114105456
244	0xbda2f0c1	-0.079560764
245	0x3f2335fb	0.6375424
246	0x3ed38dcb	0.41319117
247	0xbee5d313	-0.448876
248	0x3ca196fe	0.019725319
249	0xbd13db0b	-0.036097568
250	0xbf94f249	-1.163644
251	0xbe625721	-0.2210355
252	0xbe77b9cf	-0.24191974
253	0xbe8813a0	-0.26577473
254	0xbf2efb7d	-0.6835249
255	0x3f01eeb6	0.5075487

network_body._body_endoder.seq_layers.2.bias f4 [128]
0	0xbb4e6b7d	-0.0031497173
1	0xbb0d1998	-0.0021530148
2	0x3cb9eb44	0.022695191
3	0x3a862956	0.0010235708
4	0xbb9d3d91	-0.004798599
5	0xba8eef4d	-0.0010905057
6	0x3b03b584	0.0020097205
7	0xbb30d368	-0.0026981477
8	0x3c0fba14	0.008772392
9	0xbb0caa1d	-0.00214637
10	0x3aaad333	0.0013032913
11	0x3b171f77	0.0023059526
12	0x3c562777	0.013070933
13	0xbc0f9d29	-0.008765497
14	0x3c1f71ec	0.009731751
15	0xbb164475	-0.0022928987
16	0x3c85f9a3	0.016354388
17	0xbb3de75a	-0.0028977008
18	0xbb6f9d83	-0.003656239
19	0xbb778c0b	-0.003777268
20	0x3ac4bbb8	0.0015009558
21	0xba76c486	-0.00094134395
22	0x3c30e9ca	0.010797927
23	0x3c821cc7	0.015882863
24	0xbc246540	-0.0100339055
25	0x3c14c2c1	0.009079636
26	0xbb02a7bb	-0.00199364
27	0x3b266fdd	0.0025396266
28	0xbb8c5cdd	-0.004283531
29	0x3c8bbe17	0.017058415
30	0x3b23fdac	0.0025023026
31	0xbbcf2937	-0.006322052
32	0xbb222777	-0.002474276
33	0xbbabcfb3	-0.0052432655
34	0xbc24c965	-0.010057782
35	0xbc03a531	-0.00803499
36	0x3b98a5d8	0.004658442
37	0xbb982904	-0.0046435613
38	0xbb16d56f	-0.00230154
39	0xbb85f3fa	-0.004087922
40	0x3bf4bc3c	0.0074687283
41	0xbbc87523	-0.0061174794
42	0x3a8ca09e	0.001072902
43	0xba327ff9	-0.00068092305
44	0x3b9bcc44	0.004754575
45	0x3c4ed1e5	0.012623285
46	0xbc1b4594	-0.009477038
47	0xb94a04b5	-0.00019265975
48	0x3c5d703a	0.013515526
49	0xb988f460	-0.00026122015
50	0xbb203b0e	-0.0024449262
51	0xbc07ea4a	-0.008295605
52	0x3b873387	0.0041260156
53	0x3c4b8eb3	0.012424159
54	0x3bc6c769	0.006066252
55	0xbaca4cad	-0.0015434228
56	0x3b8a48cd	0.0042201043
57	0x3c1bb126	0.009502685
58	0xbac967bc	-0.0015365998
59	0xbb691a8d	-0.0035568804
60	0x3c4d5a7c	0.01253378
61	0xbb114cba	-0.0022170977
62	0xba9639b8	-0.0011461293
63	0x3c0743b2	0.008255886
64	0x3c975e17	0.018477483
65	0x3c99921e	0.018746432
66	0xbc08f6d2	-0.008359628
67	0x3c862e97	0.016379638
68	0xbb3809ec	-0.0028082086
69	0xbaf70f1e	-0.001884911
70	0x3be12943	0.006871374
71	0xbc39fc2a	-0.0113516245
72	0x3b159cdf	0.0022829098
73	0xbc286843	-0.010278764
74	0xba9b2f30	-0.0011839624
75	0x3c872e03	0.016501432
76	0x3c6d17e2	0.014471026
77	0x3bda07a5	0.0066537433
78	0x3c398e37	0.011325411
79	0x3c7abf6c	0.015304428
80	0xbb0b94c7	-0.0021298395
81	0x3b4e1607	0.0031446235
82	0x3bcf09c3	0.0063183024
83	0x3c70dacc	0.014700603
84	0x3b74624d	0.0037290037
85	0xbaa3039f	-0.0012436992
86	0xbc288d65	-0.010287617
87	0x3c7468c9	0.014917561
88	0x3c040a56	0.008059105
89	0x3b6b7bd2	0.0035931957
90	0x3aea805c	0.0017891037
91	0x3c049b9d	0.008093742
92	0x3c90565d	0.017619306
93	0x3bbfa704	0.0058487672
94	0xbb847ab6	-0.0040429486
95	0x3b19a96f	0.0023446938
96	0x3c18d79e	0.009328751
97	0xbb31fc30	-0.0027158372
98	0x3c4c5c36	0.012473157
99	0xbba67003	-0.005079271
100	0xbbb7c92a	-0.0056086974
101	0x3c468117	0.012115738
102	0x3c60b185	0.013714199
103	0xbac86307	-0.0015288302
104	0x3c81d2fc	0.015847676
105	0x3bef08db	0.007294757
106	0x3b495b7e	0.00307247
107	0xbbe60844	-0.0070200283
108	0xbb40213f	-0.0029316691
109	0xbb0efcf1	-0.0021818245
110	0xbbb0e191	-0.0053979834
111	0x3c7990d3	0.015232283
112	0xbbe4237e	-0.006962239
113	0xb9ee46fb	-0.00045447782
114	0x3aa7c6ea	0.001280037
115	0xbb513adc	-0.0031925952
116	0xb944ea5d	-0.00018779324
117	0x3b88f3f8	0.004179474
118	0x3a9df250	0.0012050364
119	0x3c967b59	0.018369364
120	0x3c1d8b9d	0.009615806
121	0xbc15a1c6	-0.009132808
122	0x3c4bd11c	0.012439992
123	0x3ca1cf4c	0.019752167
124	0xb90df6bb	-0.00013538722
125	0xb96ba83b	-0.00022474017
126	0xbbc60505	-0.006043079
127	0x3c118e14	0.008883972

network_body._body_endoder.seq_layers.2.weight f4 [128, 128]
0	0xbd9c2e73	-0.07626047
1	0x3e4f7d4f	0.20262645
2	0xbc34cc31	-0.011035011
3	0xbdb1bb5c	-0.08678314
4	0x3d0a9f06	0.033843063
5	0xbd42b5ba	-0.04753659
6	0xbdcfb8ca	-0.101426676
7	0xbdd82b2c	-0.105551094
8	0x3d2c80a3	0.042114865
9	0xbd32a5a5	-0.043615002
10	0xbd990016	-0.074707195
11	0x3d4f86d7	0.050665703
12	0x3d1f2f3c	0.038863406
13	0x3cf56d87	0.029959453
14	0x3e7c11b3	0.24616127
15	0x3daeea7f	0.0854082
16	0x3c00c912	0.007860439
17	0xbc858090	-0.016296655
18	0xbd96f96f	-0.073717944
19	0x3d7104c3	0.05884243
20	0x3cf4ad62	0.029867832
21	0xbda349d4	-0.07973066
22	0x3c731b6a	0.014838079
23	0x3e0c5f8f	0.13708328
24	0xbc84ac59	-0.016195463
25	0x3db4639c	0.088080615
26	0xbd95ef34	-0.07321015
27	0xbc46d707	-0.012136227
28	0x3cbafc14	0.022825278
29	0xbd7c1d93	-0.06155164
30	0xbd5cff61	-0.053954486
31	0x39f96d04	0.00047574204
32	0x3de322ca	0.1109062
33	0x3d2ac7d8	0.041694492
34	0x3c9f075c	0.019412689
35	0xbde29f40	-0.11065531
36	0x3d63c45f	0.055607196
37	0xbd76a0dd	-0.060212005
38	0xbc799d6b	-0.015235285
39	0x3e1590c6	0.14606008
40	0x3cacfb25	0.021115849
41	0xbdb1c62b	-0.08680376
42	0xbdb286b8	-0.08717102
43	0xbd8374ec	-0.064187855
44	0x3d2661cd	0.040620614
45	0xbd89d7e1	-0.06730629
46	0x3cf6e5ca	0.030138869
47	0xbd8230e1	-0.06356979
48	0x3d2e4af2	0.042551942
49	0x3c0006aa	0.007814089
50	0xbc758b28	-0.014986791
51	0x3d273246	0.04081943
52	0xbc793b05	-0.015211825
53	0x3cc5322e	0.02407178
54	0xbd154f72	-0.036452718
55	0x3d034cc1	0.03205562
56	0xbd3db054	-0.046310738
57	0xbc85ba7e	-0.016324278
58	0xbd6e4aae	-0.05817669
59	0x3d19aad5	0.037516434
60	0x3d9fe30f	0.0780698
61	0xbe8cceda	-0.27501565
62	0x3c5f7996	0.013639828
63	0x3e1613cf	0.14655994
64	0xbb4e0c09	-0.003144028
65	0xbd4ab6ef	-0.049490865
66	0xbcc8f96d	-0.024532998
67	0xbd1056ef	-0.035239156
68	0xbd85014e	-0.064943895
69	0xbd3f045a	-0.04663501
70	0xbe249ce7	-0.16075478
71	0x3c497fe0	0.012298554
72	0x3c15d2ff	0.009144544
73	0xbdcb1963	-0.099169515
74	0xbe0877dd	-0.13326974
75	0x3e049eb1	0.12951161
76	0xbd4aebba	-0.049541213
77	0xbdb6699d	-0.08906863
78	0x3d8b8343	0.068121456
79	0x3dd6deeb	0.10491737
80	0xbb38730c	-0.0028144745
81	0x3d2c6f33	0.042098235
82	0xbe4980af	-0.19677995
83	0x3e0717eb	0.13192718
84	0x3c835e15	0.016036073
85	0xbe239364	-0.15974194
86	0x3dd38be4	0.103294164
87	0xbdba995b	-0.091112815
88	0xbe048a56	-0.12943396
89	0x3dddc3fb	0.10828396
90	0x3e052273	0.13001423
91	0xbdd85d03	-0.105646156
92	0x3cf20908	0.029545322
93	0x3eae4647	0.34037992
94	0xbda569e2	-0.08076836
95	0x3d3ed5e6	0.04659071
96	0x3df17946	0.11790709
97	0xbd2ff59c	-0.04295884
98	0xbdb1d083	-0.086823486
99	0x3d5cc01c	0.053894147
100	0x3dfbe96e	0.123003826
101	0xbe30621b	-0.17224924
102	0x3d457c64	0.04821433
103	0xbb3f6090	-0.0029201843
104	0xbd562b12	-0.05228717
105	0x3de2716e	0.11056791
106	0x3aa63521	0.0012680629
107	0x3da3a257	0.07989948
108	0xbe0aa1c1	-0.13538267
109	0x3d4114f3	0.04713912
110	0x3b4b97b7	0.003106577
111	0xbd6ed702	-0.058310516
112	0xbdf09be5	-0.117484845
113	0xbcd4ad0c	-0.025961421
114	0xbe1c519d	-0.15265508
115	0x3c439bed	0.011939031
116	0xbdc0ed76	-0.09420292
117	0xbd9538bd	-0.072862126
118	0xbd64771b	-0.05577765
119	0x3ce02035	0.027359108
120	0x3df369fd	0.1188545
121	0xbd962c18	-0.07332629
122	0x3c2d8e8b	0.010593067
123	0xbd8c7030	-0.068573356
124	0x3d66c696	0.05634173
125	0x3d113b43	0.035456907
126	0xbd16f728	-0.0368568
127	0x3d27056b	0.04077665
128	0x3de86935	0.11348192
129	0xbe8b8ea6	-0.2725727
130	0x3e439c4a	0.19102588
131	0x3e12fb37	0.14353643
132	0xbd2060d4	-0.039154842
133	0x3dee685b	0.11640998
134	0x3bd5b22b	0.0065214834
135	0x3bcfcb72	0.0063413912
136	0xbdf320d2	-0.11871494
137	0xbd1cb386	-0.038257144
138	0xbcee8c9f	-0.029119788
139	0xbdbd5f12	-0.09246649
140	0x3cf3e656	0.029772919
141	0x3b4555e9	0.003011102
142	0xbe19e8fc	-0.15030283
143	0xbdc4f0ee	-0.09616266
144	0x3d8dc49d	0.06922267
145	0x3db752c4	0.08951333
146	0x3dccc224	0.09997967
147	0x3d1d7448	0.038440973
148	0xbdbc2705	-0.0918713
149	0xbd6b9451	-0.057514492
150	0x3d2d5d39	0.042325232
151	0x3e2b1a4f	0.16709255
152	0xbd22721d	-0.03965961
153	0xbdb33bc5	-0.087516345
154	0xbdb039a5	-0.08604745
155	0xbca49430	-0.020090193
156	0x3e29f126	0.16595897
157	0x3cbffebb	0.023436895
158	0x3b567063	0.0032720796
159	0xbe0292e2	-0.12751344
160	0xbd68652b	-0.056737106
161	0x3da66ef0	0.081266284
162	0xbd20bc43	-0.03924204
163	0x3e717177	0.2357844
164	0xb931a244	-0.00016940484
165	0x3daf339f	0.08554768
166	0x3cb87395	0.022516051
167	0x3d22081c	0.039558515
168	0xbd953568	-0.07285577
169	0xba8cb673	-0.0010735526
170	0xbe5ee915	-0.21768601
171	0xbe7f1b07	-0.24912654
172	0xbd5ca35a	-0.05386672
173	0xbd6be89d	-0.057594884
174	0xbd54f9ac	-0.05199592
175	0x3a832241	0.0010004715
176	0xbd3c776c	-0.046012327
177	0x3de78e1a	0.113064006
178	0xbe149a6f	-0.14512037
179	0x3ceb2bc5	0.028707394
180	0x3d70024b	0.058595937
181	0xbce4a85a	-0.027912308
182	0xbcdc9660	-0.026927173
183	0x3e326d04	0.17424399
184	0x3d922ba4	0.0713723
185	0x3dece28e	0.115666494
186	0x3dcd9782	0.100386634
187	0x3d898f9e	0.06716846
188	0xbdeb70e5	-0.11496142
189	0xbe15d2cd	-0.14631195
190	0xbd8a3468	-0.06748277
191	0xbd972dfb	-0.07381817
192	0x3dc97289	0.09836299
193	0x3decfa5e	0.11571191
194	0x3e41f47f	0.18940924
195	0xbca0805c	-0.019592457
196	0xbcfd8b66	-0.03095026
197	0x3c3fb807	0.01170159
198	0x3d1f8d2d	0.038952995
199	0xbda58cfd	-0.08083532
200	0x3daa4dc2	0.083156124
201	0xbdd5249e	-0.10407375
202	0xbdc92ae4	-0.09822634
203	0xbc7c37b9	-0.015394145
204	0x3c99eae5	0.018788764
205	0xbcecc970	-0.028904647
206	0x3e325432	0.1741493
207	0x3cd30abc	0.025761954
208	0x3a8dc51a	0.0010816187
209	0x3c4716de	0.012151448
210	0x3c0ed990	0.008718863
211	0xbcf8c621	-0.030367913
212	0xbdc2ce17	-0.09511965
213	0xbe1a747e	-0.150835
214	0x3d350853	0.04419739
215	0x3d74884a	0.059700288
216	0x3ddab8f1	0.10679806
217	0xbd0d2b3f	-0.03446507
218	0xbd398c34	-0.045299724
219	0xbd4181a8	-0.04724279
220	0x3dd2f984	0.103014976
221	0xbdbcf88d	-0.09227095
222	0xbcfc4b7c	-0.030797713
223	0xbd6393da	-0.055560924
224	0x3e0f6a93	0.14005499
225	0x3d8e7771	0.069563754
226	0x3db1e38d	0.0868598
227	0x3c93a8ae	0.018024769
228	0x3df6b40a	0.120460585
229	0xbe217a78	-0.15769374
230	0x3d77ce52	0.060499497
231	0x3d839273	0.06424417
232	0x3e512be7	0.20426904
233	0x3d4b77eb	0.04967491
234	0xbd361dd9	-0.04446206
235	0xbd72f9fd	-0.05932044
236	0x3e02e40b	0.12782304
237	0xbdaba642	-0.083813205
238	0xbc622965	-0.013803815
239	0xbd9f9d05	-0.07793621
240	0x3e08e99b	0.13370363
241	0x3d719827	0.058982994
242	0xbd53fced	-0.05175488
243	0x3cdd1ef4	0.026992299
244	0x3d9cfa63	0.07664945
245	0x3e46bd68	0.1940819
246	0x3d10183a	0.035179354
247	0x3e4fa43c	0.20277494
248	0x3d2b8b15	0.041880686
249	0xbe8aaa57	-0.27083084
250	0x3b9e1730	0.0048245415
251	0xbd848043	-0.064697765
252	0x3c9ed57b	0.019388905
253	0xbcb944a4	-0.022615738
254	0xbab66bb3	-0.0013917595
255	0xbe236f40	-0.15960407
