Assets/ML_Brain/MoveToGoal 3.onnx (onnx, 72383 bytes, 7 tensors)

39 f4 [1, 2]
00000000: 58b8 4fbd aa0f 0abd
-0.050712913 -0.033706345

distribution.mu.bias f4 [2]
00000000: 15e6 b73c 8375 563c
0.022448579 0.01308954

distribution.mu.weight f4 [2, 128]
00000000: 615a 04bd 7925 c8bc 208c 19bd 489e 0fbd
00000010: 5ef7 2abc f7ce 3bb9 e7da 27bd 0059 e6bc
00000020: 4211 b3bb 1d2c 263c 7873 acbb 0989 3e3b
00000030: 9bf6 3abc c7d3 15bc ba10 373b e33a 21bc
00000040: 05de 003d 66c9 b5bc d00a 9b3c 5628 edbb
00000050: e43b d4bc 88be 243b 1aeb 4ebd 7616 7bbb
00000060: 7130 69bc 0d99 2cbc 9bb4 42bc e58c 8ebc
00000070: 8757 c0bc 69b5 2c3b 36b8 57bc 51f2 61bd
00000080: abba a7bc 74af 14bd 4e40 04bc 4a1c a83a
00000090: 9d95 f2bc 2e64 37bb ce76 313d b42d 00bc
000000a0: 28e4 e1bc 0385 84bd c212 7fbc 5493 f13c
000000b0: 41be a6bc b5c4 34bc 4101 4cbd c17b 18bd
000000c0: 7c41 8fbc 6cc3 57bd b93b 50bd 0606 8abc
000000d0: 26ce d5bc 19fe 31bb 9eee 16bd ef6b dcbc
000000e0: 9fc1 d43a dd43 07bd 033c 4dbc e029 6cbd
000000f0: ae31 183b 2688 c1bc a898 963a 8bae bebc
00000100: 5eef 99bb e156 c9bb c0ff a8bc 931c 29bb
00000110: 9090 92bd 50f7 123b 8b40 87bd 36aa 2ebd
00000120: 56fb 61bc 89a3 0dbd c652 d2bc 4a48 40bd
00000130: 8ddd e1bc c7c9 1f3d 7b69 31bc 0d10 26bd
00000140: 345f c2bc 6ea2 13bd 1b91 883c 6936 fdbc
00000150: 2d83 363d 16a0 c0bc 5b66 44bb 876a 743d
00000160: 16f4 2bbc 9f51 27bd 33d8 0dba 04b4 943c
00000170: 849c 1f3d fb54 18bd da5e 2abd 03da 41bc
00000180: cddd 28bc 87de 43bd 0bd6 cb3c c4c4 b83b
00000190: 2350 1f3d cab4 4cbc ddf6 4c3d 3da7 193b
000001a0: 3752 bcbc 82b6 803a 5650 31bc 71c0 f939
000001b0: 47ca 89bc 92db 46bd d74c e23b 96c3 84bd
000001c0: 8d28 6bbc e7b3 bcbc fb56 28bd 2053 a6bb
000001d0: 75df 0dbd 0939 70bd e80e d4bb 920b 84bc
000001e0: 0bd5 9cbd 1cba 0ebd 4e66 4dbc 01cd a4bc
000001f0: f6f6 04bd e1fb f8bc 43fa 20bd b396 27bd
00000200: 50b5 3d3c 68e2 d83b bad7 1f3c 149f 92bd
00000210: 3adb 9b3c eedb 943c 121c c839 6cd0 583a
00000220: 63e6 323c 9776 ac3b ceb7 15bd bda6 1b3c
00000230: d842 233d 4ae1 63bc 2910 b23b dc2c 873c
00000240: 86eb 11bd d93d 1c3c 16b8 a13b 11d0 61bd
00000250: 5443 36bb 5c06 833c 5c1d 293c 9859 93bb
00000260: bd0f ba3b 352b c73c b342 ca3b 2b87 41ba
00000270: de4d df3c 7fd4 143c 8d61 da3b 327b 3d3b
00000280: 9176 293c ef68 e33c d7eb 953c d1c8 1e3c
00000290: fb59 743d cea6 6d3b 3207 81bc 988f 3d3c
000002a0: e16b d33b d6ae 8f3c 905f 83ba b1f2 94bd
000002b0: b53c 983c 549e 953b 7d47 1c3a 5142 76bb
000002c0: 5679 a1bd 6f47 a63b 7fa4 38bb 342e e83c
000002d0: 56df 8cbc 5e06 5d3c 53be e53a 69ac d43a
000002e0: bfde 01bd b95e 44bd 3a78 ee3c c22b f7bc
000002f0: 8b0a bd3b 55d0 06bc cf15 103c cab4 373c
00000300: f52e a43c c2be 8e3c 1e45 903b 67d7 81ba
00000310: 1215 563d e782 c73b 7f54 883c 9ef4 b63b
00000320: 9649 933c 7d86 d33b 79e0 203c 8341 9ebd
00000330: 7b8d d93b 7ce2 54bc cc5d 76bb f7b0 a13a
00000340: caea e0bc 04e5 143c 39a7 babc 4860 25bc
00000350: e79b 78bc b9b5 753b da0b 1b3c 81d2 923a
00000360: 5c21 8c3c f56f 45bb 5c4f f23c 105f b73c
00000370: 9752 69bd 05e2 903c a214 2f3c 27d0 9d39
00000380: a3b8 ba39 a879 703c 8c99 62bd 1a8e 653c
00000390: 1541 27bd 75f6 32bc 42e8 ab3c 9b78 873d
000003a0: ab06 06bd 08ef 9b3c f5fc 323d 42c2 0dbd
000003b0: 1dca e83b 97a1 a6bb f81a 1c3c bcfe 25bc
000003c0: 2b42 c33b 40b7 153a a1c4 dbbc 36c0 f53b
000003d0: 0ad3 7d3a 33bf 8639 ef6f 1e3c 8e1a 00bb
000003e0: 3590 a0bd 4d37 203d b0d5 6c3c eb8e 60bd
000003f0: 2873 0ebd 909c 063d 613e b83c 2d04 b43c
-0.032312755 -0.02443193 -0.03748715 -0.03506306 -0.0104349535 -0.0001791081 -0.040980246 -0.02811861
-0.005464704 0.010142353 -0.0052627884 0.0029073379 -0.011411334 -0.00914473 0.0027933554 -0.0098407
0.031461734 -0.02219076 0.018926054 -0.0072374744 -0.025907464 0.002513798 -0.05051718 -0.0038312948
-0.014232741 -0.010534537 -0.01188388 -0.017401168 -0.023479236 0.0026353246 -0.013166478 -0.05516273
-0.020474752 -0.036300138 -0.008071972 0.0012825814 -0.029612357 -0.0027983296 0.04332619 -0.0078233965
-0.027574614 -0.064706825 -0.015568437 0.029489197 -0.020354392 -0.011033227 -0.049805883 -0.037227396
-0.01748728 -0.052676603 -0.050838206 -0.016848575 -0.026099276 -0.002715951 -0.036848657 -0.026906935
0.001623202 -0.033023704 -0.012526515 -0.057657123 0.002322297 -0.023624491 0.0011489587 -0.023276588
-0.0046977242 -0.00614439 -0.020629764 -0.0025804385 -0.07156479 0.0022425242 -0.066041075 -0.042642795
-0.013792833 -0.034579787 -0.025674235 -0.04694394 -0.027571464 0.03901079 -0.010828371 -0.04054265
-0.023727037 -0.036043577 0.016670754 -0.030909734 0.044558693 -0.023513835 -0.0029968235 0.059671905
-0.010495206 -0.040849324 -0.00054109393 0.018152244 0.038967624 -0.03719042 -0.041594364 -0.011831763
-0.010306788 -0.04781964 0.024882337 0.0056386907 0.038894784 -0.012494275 0.050040115 0.002344563
-0.022988422 0.0009820017 -0.010822376 0.0004763636 -0.016820086 -0.048549242 0.0069061327 -0.064826176
-0.01435293 -0.023035003 -0.041098576 -0.0050758272 -0.034636933 -0.058648143 -0.0064715035 -0.016118798
-0.07657822 -0.034845456 -0.012536598 -0.020117285 -0.032462083 -0.030393543 -0.03930117 -0.040915202
0.011578873 0.0066187866 0.009756023 -0.07159248 0.019025434 0.018171277 0.00038167887 0.00082708034
0.010919186 0.0052631604 -0.036552243 0.009500203 0.03985867 -0.013908694 0.0054340553 0.016500883
-0.035625003 0.00953623 0.004935275 -0.05513007 -0.0027811127 0.015994243 0.010321941 -0.0044967644
0.0056781457 0.024312595 0.006172502 -0.00073825073 0.02725881 0.009083866 0.006664461 0.0028912541
0.01034321 0.027759997 0.018300934 0.009691433 0.059656125 0.0036262753 -0.015750501 0.01156988
0.006452069 0.017539423 -0.0010022987 -0.07272852 0.018583635 0.0045659933 0.00059615803 -0.0037576149
-0.07884471 0.0050744335 -0.002817422 0.028342344 -0.017196339 0.013490288 0.0017528035 0.0016225699
-0.031706568 -0.047941897 0.029110063 -0.030172233 0.005769079 -0.008228381 0.008794262 0.011212537
0.020041922 0.017424945 0.0044027707 -0.0009906114 0.052266188 0.006088603 0.016641853 0.00558336
0.017979424 0.0064552412 0.009819143 -0.07727339 0.0066391802 -0.012993451 -0.0037592528 0.0012336065
-0.027455706 0.009087805 -0.022784816 -0.010093756 -0.015173889 0.0037492348 0.009463275 0.0011201651
0.01710575 -0.0030126546 0.029578857 0.022384197 -0.05696353 0.0176859 0.010686072 0.0003010046
0.0003561425 0.014677443 -0.055322215 0.01401093 -0.04083355 -0.010923018 0.020984773 0.066148005
-0.032721203 0.019034877 0.04369827 -0.034609087 0.007104172 -0.005085181 0.009527914 -0.010131534
0.0059588156 0.00057112053 -0.026827158 0.00749972 0.00096826314 0.00025700926 0.009670242 -0.0019547078
-0.07840005 0.03911524 0.014455244 -0.054823797 -0.03477779 0.032864153 0.022490682 0.021974647

network_body.linear_encoder.seq_layers.0.bias f4 [128]
00000000: 2276 01bd 5249 f7bd e563 e8bc ecd3 9cbc
00000010: be42 903c 8292 d0bd bf6e e5bd 4e3b 573d
00000020: 40e5 6d3b 439c a4bd c8c4 7ebd d11d 973d
00000030: d63a a7bd b356 c4bc 7226 0a3d d42e 093d
00000040: 4e52 52bd 7c5a 773c a6cc 7abd ac42 e5b9
00000050: 85d1 b6bd 2e25 2dbb 89ba b0bd 5baf 89bd
00000060: 2f69 71bd fcd2 883c ba95 efbc 6051 343c
00000070: 5b6a 23bd bee3 41bd 6c3a 9939 f9a0 04bd
00000080: 2c8f 86bd 0ee9 edbd 1fd8 b2bc e201 553c
00000090: b842 ca3c fc3b e5bd fa40 a1bd f39a a03a
000000a0: 70b1 7ebd a117 453d 012b 9abd 4557 153d
000000b0: 5869 d8bd 6146 d7bc 5bf3 21bd cdef af3c
000000c0: b1b8 8bbd 87bc a13b 8a85 85bc 4821 67bd
000000d0: 3b27 c8bd 5662 efbd 6280 a5bd 595f 283d
000000e0: 09bd 6fbd d44b 03be 4d2d 9fbd 636c 97bd
000000f0: dc76 a7bd 18b5 fdbd 5f5d a23c c6f5 83bd
00000100: 1006 58bc 9eb4 d23c 9f20 32bb 3d7c 84bd
00000110: 4f30 d1bb cbdb 0bbe 0b78 57bd d181 8dbd
00000120: a1b4 8cbb 912d 403d b894 b8bd 0162 abbd
00000130: 13b1 2f3b f504 e1bb bfb6 043d cf0c 53bd
00000140: 71d9 4ebc de86 49bd 27fa a8bc cde4 283d
00000150: cd50 be3d 4b00 4dbd bb81 c5bd e053 41bd
00000160: 5a66 94bd 6540 aebd fda6 50bd da83 93bc
00000170: 030a 7abd c2be b73d df74 00be c09d bdbc
00000180: 7a92 87bd 4de8 2bbd f0df 923d a807 4dbd
00000190: 0f85 d4bd 12a1 15bd 67dc fdbc bbd5 003d
000001a0: bd97 b73d 7071 4b3c 7383 ab3d 6541 2fbd
000001b0: 809f 2cbd 6e52 b4bc 1bc1 813c 4ee8 1dbd
000001c0: 45e8 a7bd 9c40 9fbd fa17 573c e482 73bd
000001d0: 012c f1bb 4745 79bd f0bb 8f3c 7a09 283c
000001e0: 3f30 16bd 66e8 54bd 1046 ca3c c1b3 53bd
000001f0: 3dd1 bf3c 23ff d6bc ee2e f73c 09ef 3cbc
-0.0316068 -0.120745316 -0.028367946 -0.019144021 0.01760995 -0.10184194 -0.11202764 0.05254679
0.0036299974 -0.08037617 -0.062199384 0.07378734 -0.08165519 -0.023967123 0.03372807 0.033491924
-0.051348023 0.015097257 -0.061230324 -0.00043727958 -0.089266814 -0.0026419866 -0.08629329 -0.067228995
-0.0589382 0.016702168 -0.0292462 0.011005729 -0.03989635 -0.047336332 0.00029225962 -0.032380078
-0.065702766 -0.11616717 -0.02183157 0.013000937 0.024690017 -0.11193082 -0.078737214 0.001225321
-0.062180936 0.048118237 -0.075277336 0.03646018 -0.10566968 -0.026278676 -0.039538722 0.02147665
-0.068223365 0.0049358043 -0.016299028 -0.056428224 -0.097731076 -0.11688678 -0.08081128 0.041106556
-0.058529887 -0.12821895 -0.07772312 -0.0739372 -0.081769675 -0.123880565 0.019819913 -0.06443362
-0.013185039 0.02572089 -0.0027180088 -0.06469009 -0.0063839327 -0.13658063 -0.052604716 -0.06909526
-0.0042939936 0.046918456 -0.09012741 -0.08368302 0.0026808425 -0.006867046 0.032400843 -0.051525887
-0.012625084 -0.049200885 -0.020627094 0.041233826 0.09292755 -0.050049108 -0.09643885 -0.04719913
-0.072460845 -0.08508376 -0.050940502 -0.018007208 -0.061044704 0.08971931 -0.12544583 -0.02314651
-0.06619735 -0.041969586 0.07171619 -0.05005613 -0.103769414 -0.03653056 -0.030988885 0.03145383
0.08964489 0.012417182 0.08374681 -0.042786974 -0.0421443 -0.022011962 0.01583915 -0.03855162
-0.08198599 -0.07775995 0.013128275 -0.059451 -0.007359982 -0.060857084 0.01754567 0.010256166
-0.036667105 -0.051979445 0.024691612 -0.0516851 0.023415202 -0.026244706 0.030173745 -0.0115316

network_body.linear_encoder.seq_layers.0.weight f4 [128, 6]
00000000: c06a 8cbe ead9 c13e 9741 153e 9b42 9fbe
00000010: 96b2 e73e 858c 0abe 3256 80be 7589 09bc
00000020: 4c03 6f3e fd34 14be d1eb 01bf ed3f 063f
00000030: e2b9 8fbc 69b7 333f 647c a93e f115 633e
00000040: 331c 21bf 3572 e7bd 1a33 0a3e d442 53bd
00000050: 6a3f 153f 9b9f 9a3e 82b6 40be b0b4 d5be
00000060: c96c 0dbe 2eb2 dabe 75bb 9a3e 0038 863e
00000070: 49c9 39bf 55a0 253e 6da2 e13e cff7 39bf
00000080: 8000 503e b59f 1c3f 0a10 3bbe ab2c 94be
00000090: 4b1f 55bf 74c5 dd3e 24a4 8d3e 62d4 2a3f
000000a0: 10e6 543f 1975 3a3e a465 92bd 47b1 b3bd
000000b0: 6415 d8be 1630 383e 1109 813f adc3 3b3f
000000c0: 4fb0 d4be 6dff da3e 3416 033e b892 1b3e
000000d0: adec a13e f22f 8a3e 9ae8 90be 2eb1 20be
000000e0: d085 fb3e 7f45 563f 8cc8 4fbd e249 a33e
000000f0: 94e2 043e 2271 103f 6577 eebd 6977 d0bc
00000100: 7e52 08be 9a5c 04be 1a01 9dbe 42c5 b3be
00000110: 7cb1 3c3f 520c 8d3d 7f25 c43e 49b8 023f
00000120: a69b 673e de79 bebc 7dbc 013e 9fdb 14bf
00000130: 40d3 ebbe ece5 a5be 69b4 13be 1e70 0b3f
00000140: 8545 cabe 21f3 efbe 3a66 663e cccc 28bd
00000150: e6f5 023f ad63 82be 9a87 59be 5548 c93d
00000160: 2f40 debe 6472 793e a356 0cbf f3ce 55bf
00000170: aa2e 70be 251b babe 3391 ac3e e9c4 5cbe
00000180: a40c 5b3f 3bba 3a3f bba2 013f 484b 903c
00000190: 229d e73e 03bc 3f3e 8c35 5cbe 00e7 d4be
000001a0: f36a c83e 34de 303f 99d1 6cbe 6527 c73e
000001b0: 4e58 7bba c9b5 c53e 9f10 48be 4025 f6be
000001c0: 7129 9a3e 4675 453f 485c 7f3f 5a45 443f
000001d0: 4f56 3b3d 8c74 dfbe 10cb c9bd 786a 7bbe
000001e0: 7e66 ebbd 348b ebbe ad83 7f3d 3966 79be
000001f0: 7812 0abf 29ac 803e bee9 f0bd fe78 7bbe
00000200: d0eb 95be 37f0 cc3d fd1b afbe 9a2d 313e
00000210: 8076 483e 4223 e2be 8723 6abd 1032 5d3e
00000220: e990 da3d dfd2 d53c 4020 80bd 985c 3ebf
00000230: 0376 c0bd 220a 41bf 2b03 f9bc 8c25 d2bd
00000240: 3011 d8be 820a aa3e f830 25bd bf71 373f
00000250: aa80 1dbb d7a1 753f b4fa 09be ffc8 303e
00000260: a179 c0be 4b08 d03e a94d 25bf 05df 603d
00000270: 7844 14bf 597c 833e 22fb 3abe ae00 77be
00000280: 2f42 ffbe a58b 613e 852b 6d3e 1cda 48be
00000290: 74f4 71be 029b f8be fa77 99be 2fc6 58bf
000002a0: e89e fc3e 831e afbe 24c2 9fbe 3784 8d3f
000002b0: 24b1 48bf bd33 b03d 9718 7d3e 8f11 3bbf
000002c0: 2423 52be 6ec5 d23e 2694 5f3f 4ea3 2dbd
000002d0: be8f 803f 407b 043e 6616 233d 3372 b6be
000002e0: 3cc1 fbbe e8cc fbbe 81de 8b3d 529e 3dbe
000002f0: edc5 ba3e 909b a8be 194c f2be 466f 24bd
00000300: b586 2d3e ad2b 88be 3383 13be baa2 87be
00000310: 663a 1d3f 727c c8be 1d40 93be acc4 efbd
00000320: f823 a2bd 9f05 05bf 2b26 a3bf 1784 0c3f
00000330: 918c 28bf 48e9 3b3e 1a77 4a3f bf48 f9bd
00000340: 368f c0be 0e6d 173f 9ad4 bebe 8f76 1abd
00000350: 3cbf b2bd 1df0 f4bd 743b ccbd 4794 d4be
00000360: c710 a03d cfaf 7ebf ce27 353e 7b01 f43e
00000370: f760 c0bd 24b2 d53e 1a36 d03e 2c32 04bf
00000380: 22b1 14bf 3514 043f 4bc6 9bbe 4fa5 04bf
00000390: e8f4 92bb e888 693c 2fda d4be 53ed d83e
000003a0: 9f4b f5be fe06 873d dc61 abbe dadb 16bf
000003b0: 8617 0ebf 80e1 26bc edf4 e23d f381 c53d
000003c0: b18d 043e 8afa 1c3f ce7a ff3d 61d3 f83c
000003d0: 4b71 82be 5960 3cbc 4019 4d3f 85bc bcbd
000003e0: f172 3c3f 78cd 55bf a0b7 e73e bcd0 263d
000003f0: 608f 683e 939f ab3e 5af4 f2be e956 f83e
-0.27425194 0.37861568 0.14575802 -0.31105503 0.45253438 -0.13530166 -0.25065762 -0.008394589
0.23341101 -0.14473338 -0.5075045 0.52441293 -0.01754469 0.70201737 0.33102715 0.22176339
-0.62933654 -0.1130108 0.13496056 -0.051577404 0.5829989 0.30199894 -0.18819621 -0.41739416
-0.1381103 -0.42714065 0.30221143 0.262146 -0.7257276 0.16174443 0.44069234 -0.7264375
0.2031269 0.61181194 -0.18267837 -0.2894033 -0.83250874 0.43314707 0.27664292 0.6673032
0.8316355 0.18208732 -0.07148293 -0.08774047 -0.4220382 0.17987093 1.0080892 0.7334545
-0.41540763 0.42773 0.12801439 0.15192688 0.31625882 0.26989704 -0.2830246 -0.15692589
0.49125528 0.8369979 -0.050728366 0.31892306 0.12977058 0.56422627 -0.116438664 -0.025447564
-0.13312718 -0.1292595 -0.30664903 -0.35111433 0.7370832 0.068871155 0.38309857 0.51062447
0.22617969 -0.02325147 0.12669559 -0.58147615 -0.46059608 -0.3240198 -0.1442429 0.5446795
-0.39506164 -0.4686518 0.22499934 -0.041210935 0.5115646 -0.25466672 -0.21243134 0.09828249
-0.43408343 0.24360043 -0.548197 -0.83518904 -0.23455301 -0.36348835 0.33704528 -0.2155949
0.85566163 0.72940415 0.5063893 0.017614022 0.4523707 0.18724065 -0.21504802 -0.4158249
0.39144096 0.69089055 -0.2312683 0.38897243 -0.00095880486 0.38615254 -0.1953759 -0.48075294
0.30109742 0.7713207 0.99750185 0.7666832 0.045736607 -0.43643606 -0.09853184 -0.24552333
-0.11494158 -0.4600464 0.062381435 -0.24355401 -0.5393443 0.25131348 -0.11763333 -0.24557874
-0.29281473 0.10006755 -0.3420104 0.17302552 0.19576454 -0.44167525 -0.057162788 0.21601129
0.10672171 0.026101528 -0.06256151 -0.74360037 -0.09397509 -0.75406086 -0.030397018 -0.10261068
-0.42200613 0.33211142 -0.040329903 0.7165794 -0.0024032989 0.95950073 -0.13474542 0.17264174
-0.37592795 0.40631327 -0.64571625 0.054900188 -0.57916975 0.25680807 -0.18259862 -0.24121353
-0.49855182 0.22025926 0.23161133 -0.19614452 -0.23628408 -0.48555762 -0.29974347 -0.84677404
0.49339986 -0.34202966 -0.31202805 1.1055974 -0.78395295 0.08603618 0.24716412 -0.7307367
-0.20521218 0.41166252 0.8733543 -0.042392068 1.0043867 0.12937641 0.039816283 -0.35634002
-0.49170864 -0.4917977 0.068295486 -0.18517426 0.3647913 -0.32931185 -0.47323683 -0.04014518
0.16945918 -0.26595822 -0.14405517 -0.26491338 0.61417234 -0.39157444 -0.28759852 -0.11707434
-0.07917017 -0.519617 -1.2746023 0.54889053 -0.6583949 0.18350708 0.79087985 -0.12172078
-0.3760926 0.5915078 -0.37271577 -0.037710723 -0.08727881 -0.119598605 -0.09972277 -0.41519377
0.078157 -0.9948701 0.17690966 0.4765738 -0.093934946 0.41737473 0.40666276 -0.51639056
-0.58082783 0.51593333 -0.30424723 -0.5181474 -0.0044847615 0.014253832 -0.4157271 0.42368564
-0.47909257 0.065931305 -0.33473098 -0.58929217 -0.55504644 -0.010185599 0.11081872 0.096439265
0.12944676 0.6131979 0.12474595 0.03037423 -0.2547706 -0.01149758 0.80116653 -0.09215645
0.73612887 -0.83516645 0.45257282 0.04072641 0.22710943 0.33520183 -0.4745205 0.48503807

network_body.linear_encoder.seq_layers.2.bias f4 [128]
00000000: 1846 18bd 1c81 9cbd 900c 68bd a613 74bc
00000010: 08cb b5bd 1cc9 93bd f9ab 19bd 0377 7ebd
00000020: 8684 a9bd 548a 4ebd f04d 4cbc 05cf 93bd
00000030: 3935 4ebd 317b 13bd 5dd3 adbd d667 67bd
00000040: 03a8 84bd 700f 92bd 8a7e 6abd caef f0bb
00000050: 3540 1cbd 5f99 a1bd f5f7 1dbd b6ae 4cbd
00000060: df3a 80bd dbdf 6dbd 7b91 9fbd 1297 75bd
00000070: 8d22 a1bd 49aa b3bd e4f4 83bd c634 aabc
00000080: c093 7bbd 9e31 71bc dc74 9abd 3952 aabd
00000090: 9e5c 16bd 5a7b 1bbd e569 a5bc 8597 acbd
000000a0: db53 8dbd dc42 43bd 3526 4abd c93d aabc
000000b0: 4119 85bd 8c46 64bd d9e5 19bd 7e2a 59bd
000000c0: e11e e53a 5161 f9bc c030 36bd 060a 5ebd
000000d0: 4028 70bd 0738 9dbd 1785 53bd 154a 88bd
000000e0: 4835 c3bc 9adc febc 3748 34bd 5637 1dbd
000000f0: 9005 92bd 6764 9bbd b326 adbd 3500 a4bd
00000100: 3b40 50bd a870 61bd b0d0 75bd f4d5 5cbd
00000110: 9815 17bd 2de4 99bd 1f66 d5bc ee9c 5abd
00000120: 212f 4fbd 8f89 77bd 3d91 71bd f3e4 b23b
00000130: f795 15bd 9737 993c 4cb5 8cbd 2aab 1fbd
00000140: 5935 45bd be70 ebbc ad11 9f3b 61da 4e3c
00000150: 4170 1ebb a3d1 5cbd 8dcd 76bd 6316 773b
00000160: b421 8cbd bbf7 06bd 2fe1 70bd 146e 4abd
00000170: 0a6c bfbc 2c4c e9bc fac3 78bd f0b9 83bd
00000180: bb36 b5bd dc2a 60bd a2b8 07bd 82d0 1dbd
00000190: a2bf 60bd e8b1 d0bc a9ac 34bb 886f 263c
000001a0: ea92 30bd cb5d 97bd 6520 12bd 46dd 1cba
000001b0: 0b3f 98bd cc19 47bd 7b5c 94bd ad31 16bd
000001c0: 8f26 96bd 36a6 75bd bd9a 2bbc 3e48 bcbd
000001d0: 09c6 b9bc c252 2fbd a57d 7fbd 778f 70bd
000001e0: 7183 9b3c 872b 9abc af13 7cbc 0381 093c
000001f0: 8ca4 90bc f35d 5ebd fe94 05bd 7356 2cbd
-0.03717622 -0.07641813 -0.056652606 -0.014897263 -0.08876616 -0.07216093 -0.03751752 -0.062125217
-0.0827723 -0.05042489 -0.012469754 -0.0721722 -0.050343726 -0.036006156 -0.0848758 -0.05649551
-0.06477358 -0.07131851 -0.057249583 -0.007352804 -0.03814717 -0.07890581 -0.03856655 -0.049971305
-0.06261229 -0.058074813 -0.0779142 -0.059958525 -0.07867918 -0.08772714 -0.064431936 -0.020777117
-0.061420202 -0.014721302 -0.075418204 -0.08316464 -0.03670942 -0.037959434 -0.020192096 -0.084273376
-0.0690076 -0.047671184 -0.049352843 -0.020781415 -0.064989574 -0.05573134 -0.037572715 -0.05301904
0.0017480516 -0.030441912 -0.044480085 -0.054208778 -0.058632135 -0.07676702 -0.051640596 -0.06654755
-0.023829117 -0.03111105 -0.044014182 -0.03838285 -0.07129967 -0.075875096 -0.08454647 -0.08007852
-0.050842505 -0.055039078 -0.060013473 -0.05391498 -0.036885828 -0.07514224 -0.026049672 -0.053372316
-0.050582055 -0.06043392 -0.0589764 0.005459422 -0.03651997 0.018703265 -0.06870517 -0.038981594
-0.04814658 -0.028740283 0.004854402 0.012625308 -0.0024175795 -0.053910863 -0.060254622 0.0037702553
-0.06842366 -0.032951098 -0.0588085 -0.049421385 -0.023366947 -0.028478704 -0.060733773 -0.06431949
-0.0884833 -0.054728374 -0.033135064 -0.038528927 -0.054870255 -0.025475457 -0.0027568734 0.010158427
-0.04310886 -0.073909365 -0.035675425 -0.00059839 -0.074338995 -0.048608586 -0.07244202 -0.03666847
-0.07331573 -0.059972964 -0.010473904 -0.091934666 -0.022677438 -0.042803533 -0.062375683 -0.05873057
0.018983575 -0.018819584 -0.015385552 0.008392575 -0.017656587 -0.054288816 -0.032612793 -0.042074632

network_body.linear_encoder.seq_layers.2.weight f4 [128, 128]
00000000: 9e7d 973d b667 c53c 104b 7dbd 9818 b93b
00000010: a299 a13d b031 823b d63d 273d c9b9 fb3d
00000020: 66b9 a4bc 2807 a9bd 7726 33be 610a 61bd
00000030: 1aad f33c 93cc 5d3d 6728 f3bd 9cd0 653d
00000040: ff69 8fbe 8b55 00be bc9d 923d 7b58 d2bd
00000050: d0cd 433d 7b8a a93a 48ff 6abc fc6f 393d
00000060: 48b0 723d f9ea ec3b 7006 b1bd 2333 1e3e
00000070: bec0 77be c159 d637 8f54 62be a688 b43d
00000080: 1a90 913c 5ad6 3f3e 101d 3fbd 22c7 893d
00000090: 57db 66bd b4e0 c33d 3922 21be a5bc 143c
000000a0: 2b51 f4bc b399 083e e962 db3d 87a8 2bbe
000000b0: e544 3dbd c10f 10bd d6d8 9c3c a104 09bd
000000c0: 6cb8 ac3d b9f0 05bd b3be eabd 35e2 3ebe
000000d0: 766a 0bbe 0771 053e c867 1cbe 2de4 04be
000000e0: b297 4dbe cf9e 163e 5d9f a5bd bc7d f53c
000000f0: 0537 dabc 3d3f 323d a9b8 9f3d 9551 973d
00000100: bb83 71be 5ebd 02bd 3c4b ca3d bab0 693e
00000110: 7876 cabd 4b48 67bd 62d7 f9bd a01b a13c
00000120: faab a93d e2da 883d 9edf d43d 2188 12bd
00000130: 7f80 3e3d cdfa 15bd fb0f 1fbd 2c3c b93b
00000140: 448b 7c3d 795c 46bc 6553 c93b 2c67 94bc
00000150: 79e3 253d 54cd c0bd 59db d93d cee9 1dbe
00000160: dc84 51bd 3f29 0cbd fc16 4f3e 4c5b 053e
00000170: 1ab4 8f3d 7d96 d73c 3430 343d 093e 8c3d
00000180: ee63 463d e97b 713d 671e 04be da28 e33d
00000190: ebd1 173e eae2 cd3d 9e6a d7b9 ccd1 09bc
000001a0: b2cc 91bd b546 aabd a859 0b3d fbba 7dbe
000001b0: f501 423d 7aec b0bd 37a5 2c3d 72f2 123e
000001c0: c269 c93d 40b0 673d 0c03 783d 5819 05bd
000001d0: c2e2 efbd 270b 44bd f2f1 cf3d e36a 9e3d
000001e0: 1fd5 07be 049a 61be e945 e73c 7aa5 8fbd
000001f0: 39a4 bc3d 2ca1 33bd d71f 903d eecb da3d
00000200: 0e18 8b3d c401 da3d 4811 afbd 5cdd b4bd
00000210: 26c3 cf3d 1715 54bd d7d5 48bd bba5 24be
00000220: 60c2 15be 25a6 9a3b 25ae e6bd e9c8 e6bd
00000230: 14ad e739 7000 a63d 319b 1bbd 8401 50bd
00000240: 9a26 de3d 0c41 803e f5f5 efbc ec45 9bbd
00000250: 2fe5 9a3c df85 883d 44f1 5a3c ca99 ab3d
00000260: 4074 003d 44a3 cebd 71e1 a33d b832 4ebd
00000270: 9d47 813d 0edd 3f3d f7bc 58bc bc2f 5a3e
00000280: 923f bdbd 3208 623b 9998 7bbc 526f b6bd
00000290: 80b6 223e 5598 063d ecd4 febd bf02 cdbd
000002a0: a932 28be 7952 083e d8ae d5bd d396 d9bc
000002b0: b148 ad3d d2f4 8c3d fe60 5cbc 2d3f e03c
000002c0: 78fb 4bbd c424 143d 1c2a 083d 0720 9a3d
000002d0: 6b32 7a3d 21de 063e e376 89be 83da 033e
000002e0: fd53 d5bd 2d5d c3bd 0b08 f6bd a4c5 a8bc
000002f0: bc22 afbd 41c6 173d 0b2a 103d 2b78 903b
00000300: 11f1 ecbd 784a ce3c b1c7 9dbd c7d7 19bc
00000310: 7e5d babd 5cb6 debc e580 a4bc 362b 80bd
00000320: e4ca 113e 607f af3c 314d b7bc 7bdd 62bc
00000330: a222 593d 7b85 95bd 4bf9 113e 5b9f 8cbd
00000340: 21fd b5bc 968c 4dbe 6e47 503d f147 9f3e
00000350: 1a90 0f3c fb40 1ebe ef0d 85bc 4934 99bd
00000360: 0743 a23d c28d 7c3a aabc 983c c501 24bd
00000370: 56bc 39be 5133 a7bd 4995 a03d 5b0a c33c
00000380: 8392 3fbd fa28 74bd e161 093d 34ae f1bd
00000390: a299 85be f9c9 e8bd abc6 6abb 2ccd da3d
000003a0: 206a 0dbd 0f66 cdbd c01d 2b3e 8779 b73b
000003b0: 24dd f5bd 9b80 febd d21a 413d 947b 8bbd
000003c0: 3f95 8abd a699 0c3d b36d 72bc ef3d 013d
000003d0: 9214 b2be 6789 72bd 3797 20be b097 0abe
000003e0: a6ea 453d 796d ebbd 877e 7cbd f137 a3bc
000003f0: b983 01bd 60cb d7bd 803d e23d c3f0 9bbc
0.073970065 0.024097305 -0.061839163 0.0056486838 0.07890631 0.0039732084 0.040830456 0.12291295
-0.020107936 -0.08253318 -0.17495142 -0.05494154 0.029745627 0.054150175 -0.118729405 0.05610715
-0.28010556 -0.12532632 0.07158992 -0.102707826 0.0478037 0.0012934947 -0.01434309 0.045272812
0.059250146 0.0072301594 -0.08643806 0.15449195 -0.24194619 2.5552583e-05 -0.22102569 0.08815126
0.017768908 0.18734112 -0.046658576 0.06727435 -0.056361523 0.09564343 -0.15735711 0.0090781795
-0.02982386 0.13339882 0.10712225 -0.16763507 -0.04620828 -0.035171274 0.019146364 -0.03345168
0.08433613 -0.032700274 -0.11462154 -0.18640979 -0.1361483 0.13031398 -0.15273964 -0.12977667
-0.20077398 0.14709018 -0.08087037 0.029967181 -0.026637563 0.04351734 0.07798893 0.073886074
-0.23585407 -0.031918876 0.09877631 0.22821322 -0.09885877 -0.05646543 -0.12199284 0.019666493
0.08284755 0.066823736 0.10394214 -0.035774354 0.046509262 -0.036616135 -0.0388336 0.005652925
0.06165625 -0.012107008 0.0061439746 -0.018115602 0.040500138 -0.09414163 0.1063754 -0.1542122
-0.051152095 -0.034219023 0.20223612 0.13023108 0.070167735 0.026316876 0.043991283 0.0684777
0.048435144 0.05895606 -0.12902223 0.11091776 0.14826171 0.10053046 -0.00041087432 -0.008411836
-0.07119121 -0.083142675 0.03402105 -0.24778359 0.047365148 -0.08638854 0.04214975 0.14350298
0.09834625 0.05656457 0.06054978 -0.032494873 -0.117131725 -0.0478622 0.10153569 0.07735231
-0.13264893 -0.22031409 0.028231578 -0.07013984 0.092110105 -0.043854877 0.07037323 0.10683428
0.067916974 0.10644868 -0.08548218 -0.088312835 0.101446435 -0.051777925 -0.04903206 -0.16078846
-0.1462493 0.004719513 -0.11263684 -0.11268789 0.00044188707 0.08105552 -0.0379898 -0.050782695
0.108472064 0.25049627 -0.029292086 -0.07581696 0.018908111 0.06666159 0.013363186 0.08378942
0.031360865 -0.10089734 0.08001984 -0.050341338 0.06312487 0.046841674 -0.0132286465 0.21307272
-0.09240641 0.0034489748 -0.015356206 -0.089079514 0.1588993 0.03286012 -0.124429554 -0.100102894
-0.16425575 0.13312711 -0.104337394 -0.026561176 0.084611304 0.06882633 -0.013450859 0.027373875
-0.049800366 0.036167875 0.033243284 0.0752564 0.06108324 0.13170673 -0.26848516 0.12876324
-0.1041641 -0.09539256 -0.12013253 -0.020602055 -0.08551547 0.037054304 0.035196345 0.0044088564
-0.11569417 0.025181994 -0.07704104 -0.009389824 -0.090998635 -0.027186565 -0.020080993 -0.06258242
0.14237553 0.021423042 -0.022375675 -0.01384675 0.053011544 -0.0730085 0.14255254 -0.06866332
-0.022215428 -0.2007316 0.05084937 0.31109574 0.008762384 -0.15454476 -0.016241996 -0.07480676
0.07922941 0.00096341607 0.01864465 -0.04004075 -0.1813825 -0.08164085 0.07840974 0.023808649
-0.046770584 -0.05960939 0.03354061 -0.11800805 -0.26093775 -0.11366648 -0.0035823982 0.10683665
-0.034525037 -0.10029232 0.16710567 0.005599204 -0.1200507 -0.12426873 0.04714472 -0.0681068
-0.06766748 0.034326218 -0.014796662 0.031553205 -0.3478132 -0.05921307 -0.15682684 -0.13534427
0.04831948 -0.114954896 -0.061644103 -0.019924136 -0.03161976 -0.105368376 0.110468864 -0.019035703
