Assets/ML_Brain/MoveToGoal 1.onnx (onnx, 72639 bytes, 7 tensors)

action_model._continuous_distribution.log_sigma f4 [1, 2]
000000 b2 c0 ad bc b3 dd ed bc
       -0.021210048 -0.029036378

action_model._continuous_distribution.mu.bias f4 [2]
000000 7f 18 ea 3a 54 bc aa bb
       0.0017860084 -0.0052104387

action_model._continuous_distribution.mu.weight f4 [2, 128]
000000 c5 08 1a bd 1a 26 73 bc 78 37 99 bc 0a dc 57 3c
       -0.03760602 -0.014840627 -0.018703207 0.01317502
000010 df 5b 09 bd 58 b9 fd bc ad 81 04 bc ef f4 1f 3d
       -0.03353488 -0.030972168 -0.008087558 0.039051946
000020 06 0f 39 3c 54 ee a8 bc da aa f7 bc 8d dd 10 3d
       0.011295086 -0.020621456 -0.030232836 0.035367537
000030 03 85 3d ba af 44 15 3d a9 84 66 3c 24 13 d1 bc
       -0.0007229598 0.036442455 0.014069715 -0.025521822
000040 86 34 07 3c 89 96 d8 bc 44 5f 12 bd 04 6f 33 bc
       0.008252269 -0.026438968 -0.035735384 -0.010951761
000050 0e ae bf 39 4b f3 38 bc 9e a7 ab bc 05 8f 11 3c
       0.0003656004 -0.011288474 -0.02095395 0.008884196
000060 3b 2b 21 3d a6 e8 14 3d 92 51 de bb c2 dd ae bc
       0.03934787 0.036354683 -0.0067846263 -0.021345977
000070 68 95 a1 bc 47 f1 ce bb 0c 33 05 bd e5 bc 18 bc
       -0.019724563 -0.0063153836 -0.032519385 -0.00932238
000080 94 40 59 3d f1 2c 26 3c 1b a7 f7 3c 24 31 ad bb
       0.053040102 0.010142551 0.03023105 -0.005285399
000090 a1 bd ac bc 16 44 9f bc 3a df cc 3c 17 73 13 bc
       -0.021086516 -0.019441646 0.025008786 -0.0089996075
0000a0 3c 3c db 3b 93 2e 04 3c d0 ea 32 3c fa ee 84 bc
       0.00669053 0.008067745 0.0109202415 -0.016227234
0000b0 80 38 65 3d 64 73 36 bc 4d 6a f7 3b b6 54 cb bb
       0.055962086 -0.01113591 0.007550514 -0.0062051667
0000c0 2f 13 80 bc 36 e8 28 3d ef 8c 47 bb 91 1e c1 3a
       -0.015634147 0.04123708 -0.0030448993 0.0014733841
0000d0 f7 92 3c bc 06 87 0b bc 8c ed e2 bb a9 2c de bc
       -0.0115096485 -0.008516079 -0.0069252905 -0.027120905
0000e0 db b8 0e bd 7e f6 07 3d bb de 1c bb 51 88 c5 3c
       -0.03484426 0.033194058 -0.0023936469 0.024112852
0000f0 9f 81 37 3d 16 58 c4 ba 5b 3e 03 3d 16 d4 42 bd
       0.04480135 -0.0014979865 0.03204189 -0.047565542
000100 b7 7e de bc 1a 0e 89 3c 34 42 1f bc af 9f 57 bb
       -0.027160032 0.016730357 -0.009720374 -0.0032901575
000110 04 62 24 3d ea 4e 0d bc 38 2c 4f bc e7 58 63 3b
       0.040132537 -0.008624772 -0.01264482 0.003469044
000120 34 ff 83 3c 22 76 0a bc 47 65 10 3b 5c a8 eb 3b
       0.016112901 -0.008451017 0.0022033022 0.007191701
000130 12 38 d6 3c a0 93 8f 3a 66 60 b5 bc 11 cd 8a bc
       0.026149783 0.001095403 -0.022140693 -0.016943486
000140 59 6d 00 3d 37 e2 ef 3b f7 33 56 bc cd 61 c5 bc
       0.031354282 0.007320668 -0.013073913 -0.024094487
000150 82 f5 07 3c cd 31 c9 bb 6f 69 7f bc 13 b8 1f 3d
       0.00829828 -0.00613997 -0.015589102 0.038993906
000160 9e dc 17 bc 3f 78 6d 3a 3e 64 8d bc 47 dd ab bb
       -0.009268908 0.00090587506 -0.017259713 -0.005244884
000170 f7 ea a5 3b de 9c 50 3b aa 5c 8c bb 83 33 06 3d
       0.0050634104 0.0031831781 -0.0042835074 0.03276397
000180 1f 1d a8 bc 36 2f 7a bb ec d2 36 bc cb d2 1b bd
       -0.020521699 -0.0038175113 -0.011158686 -0.038042825
000190 ee 33 4a bc 9d 09 87 bc b8 be 84 bc 45 22 f8 bc
       -0.012341483 -0.016484076 -0.016204223 -0.030289778
0001a0 e5 bd 1d bd dd ca 75 3c 40 df 20 3c be aa d1 b9
       -0.038511176 0.01500198 0.009818852 -0.000399908
0001b0 b8 f8 a4 bc 61 30 59 3b 6e ab 0f bc 6f 4c 58 bc
       -0.02013813 0.0033140408 -0.008768899 -0.013201817
0001c0 d7 c9 a5 bc 91 04 2e bb 50 ca a7 3b 7a 57 10 bc
       -0.020237846 -0.0026553015 0.005120553 -0.008809919
0001d0 dd 23 df 3c c6 69 26 3c 7a ee ac 3c cb f5 a7 bc
       0.02723878 0.010157054 0.021109808 -0.020502945
0001e0 a8 98 9f bc 37 c1 f5 bb 4e 4f 36 3d be fe 5b bc
       -0.019481972 -0.0074998396 0.044509225 -0.0134274345
0001f0 5b 0d 64 bd 90 e3 0e bc 68 20 10 bd 62 41 77 3c
       -0.0556768 -0.008721247 -0.035187155 0.015091272
000200 76 aa 44 3b 51 a7 8f bc b5 d5 aa 3a c3 cf 03 bc
       0.003000883 -0.017535837 0.001303366 -0.00804514
000210 fe ab 8a 3c b7 83 34 3c 02 b6 3f bd e3 85 e8 bc
       0.016927715 0.011017731 -0.046804436 -0.028384155
000220 f0 91 9f 3c e5 49 c7 3c 15 e3 88 bb af 3d 3a bb
       0.019478768 0.024327228 -0.004177461 -0.0028418114
000230 60 3b 89 3c f2 8b d7 bb f8 8b be 3b 54 24 04 bd
       0.016751945 -0.006577962 0.0058150254 -0.032261208
000240 0c 31 90 bc ea da 32 3b e7 59 95 bc 0a 13 6c bb
       -0.017601512 0.0027291127 -0.018231345 -0.003602209
000250 75 09 94 3c 77 c9 cb 3c e4 dc d2 3b ec b6 3c 3c
       0.018070916 0.02487634 0.0064350236 0.011518221
000260 6f 39 66 bc 79 17 d9 3c 72 63 a0 3b 52 3f 9f 3c
       -0.014051779 0.02650045 0.0048946673 0.019439373
000270 2f 63 01 3c 91 b2 92 3b e6 2d b2 bb 13 db c5 bc
       0.007897182 0.004476853 -0.0054376004 -0.024152314
000280 67 cc 56 3c f9 10 59 3c f8 4c 99 bb 30 80 76 bc
       0.013110257 0.0132486755 -0.004678365 -0.015045211
000290 95 b9 31 bc fd 7a f2 3c 95 d3 3e 3d 35 93 1d 3d
       -0.010847469 0.029599661 0.0465885 0.038470466
0002a0 23 e1 83 3c 27 85 c7 3c 7c ab 50 bc f3 ce 16 3b
       0.016098564 0.024355484 -0.012736198 0.0023011535
0002b0 66 0d a2 bc 73 fb 72 bb f7 cd e4 bb 7b 0c 93 bb
       -0.01978178 -0.0037076145 -0.0069825607 -0.004487572
0002c0 bb d7 1d 3c d4 f8 3b 3d 4e 71 d4 bb b9 aa c7 3c
       0.009633954 0.045891598 -0.0064832335 0.0243734
0002d0 cf ea bb bc 11 2d c0 3b 65 c8 85 bc 02 d8 15 bd
       -0.022939114 0.0058647473 -0.016330907 -0.036582954
0002e0 c0 60 24 bc 45 07 2f bb 80 db e6 3c 3d b4 97 3c
       -0.010032833 -0.0026707214 0.028180838 0.018518561
0002f0 01 88 2f 3c 91 54 de bb 71 30 be bc d4 02 ec 3b
       0.010713578 -0.0067849834 -0.023216458 0.0072024856
000300 15 6a 15 bd 9e 5a 43 3c 61 ec b9 bb c2 c6 76 bc
       -0.03647812 0.01192346 -0.0056739305 -0.015062036
000310 05 da 8f bb eb 26 04 3d bd a9 2e bc 4c 78 38 ba
       -0.0043900036 0.032263678 -0.010660586 -0.00070369686
000320 8d 41 2f 3c f1 2d 6d 39 07 85 50 bc 49 3b 8c bc
       0.010696781 0.00022619196 -0.012727029 -0.017118113
000330 7c da 02 bc b9 e9 30 bc b0 c8 11 3d b9 9d 2c 3d
       -0.007986661 -0.010797911 0.03559178 0.042142604
000340 13 8b 14 bd 08 63 4f 3c f2 67 a3 ba 67 0c 90 3c
       -0.036265444 0.012657888 -0.0012466891 0.017584039
000350 62 be e8 3b 50 12 a2 3c e8 03 6a 3d 24 70 f9 3b
       0.0071027735 0.019784123 0.05713263 0.007612245
000360 1f 91 36 3d 2b 9d ce 3c 31 39 60 bc 63 8b ab 3b
       0.044571992 0.025221428 -0.0136855105 0.005235122
000370 10 4e 7c 3c bc 65 b7 bc a3 98 38 bc d6 67 3c ba
       0.015399471 -0.022387378 -0.01126686 -0.00071871036
000380 30 12 69 3b 3f 11 ed 3c 1b 13 a3 3c da dd 25 bc
       0.003556382 0.028938888 0.019906571 -0.010123694
000390 9e 0b ce 3b cf 6d e9 bc 18 51 f4 bb 51 a0 e2 bb
       0.006288006 -0.028494744 -0.007455956 -0.006916084
0003a0 4b c8 26 bc da 88 18 bd a7 92 c4 3c 6b 59 ce bc
       -0.0101795895 -0.037239887 0.02399571 -0.025189122
0003b0 b8 a0 87 3c bc e5 4b bc 27 18 79 bc 73 43 16 3d
       0.016556129 -0.01244491 -0.015203512 0.03668542
0003c0 cf 45 03 bc a2 1a 1b bb 09 47 b8 3c 91 21 77 bc
       -0.008012249 -0.0023666997 0.02249481 -0.015083686
0003d0 db f7 07 3d 5a 09 02 3c f7 ef cd 3c ba 9d ac bb
       0.033195358 0.0079368 0.025138838 -0.005267826
0003e0 98 6c ba 3c a1 9d cf 3a 03 6e b9 bc 44 85 f3 bc
       0.02275686 0.0015839824 -0.022635465 -0.029726632
0003f0 6e 61 d6 3c 9d 9d f4 3c 45 6a 33 bb 75 30 35 3c
       0.026169505 0.029860312 -0.0027376574 0.011058916

network_body._body_endoder.seq_layers.0.bias f4 [128]
000000 14 de 14 bc 1e be a5 3b 4d 47 c9 3c 4a ea 4b 3b
       -0.009086151 0.005058064 0.024570132 0.003111499
000010 62 39 89 ba 17 8e 09 bb af 8b b5 39 f8 5a 0b bc
       -0.0010469372 -0.0020989233 0.00034627083 -0.008505575
000020 97 70 22 ba f5 e2 26 bc 82 6c 93 3c 5f a8 a1 3a
       -0.0006196587 -0.010185947 0.017996076 0.0012333504
000030 9a 4e a8 3b 1e c8 66 3a ec 1d 36 bc 53 a5 94 3b
       0.005136323 0.00088036235 -0.011115532 0.0045363097
000040 f8 9c 8e 3b 46 24 58 bb 53 a6 0a bc c3 03 87 bc
       0.004352208 -0.0032980605 -0.008462506 -0.016481286
000050 fc 79 8d bb bc d1 80 bb 10 6d 2a 3d 8d 00 c2 b9
       -0.00431752 -0.0039312523 0.041607916 -0.00037002974
000060 e1 e9 03 ba ba dc b0 3c 0c 63 d7 bb 7c fb 5b 39
       -0.0005032104 0.021589626 -0.0065730866 0.00020979153
000070 69 1c b4 bb b3 ab 90 bb 03 b5 0d 3c 2f 6b c6 3b
       -0.005496551 -0.0044149994 0.008649114 0.0060552577
000080 87 89 e7 bb 92 8c 49 3c 66 f8 5e 3c 81 5c 46 3a
       -0.007065955 0.012301581 0.0136090275 0.0007566885
000090 d8 5d 2a 3c 1d 49 c6 3b d8 af e5 ba b4 cf 77 3b
       0.010398351 0.0060511963 -0.0017523719 0.003781301
0000a0 fa 4f 2d bc a2 93 13 bb 21 12 d5 3a b5 96 06 3b
       -0.01057815 -0.0022518416 0.0016256013 0.0020536606
0000b0 a7 3e 3c bc 82 3a da ba a6 c1 93 bb 63 6b 93 bb
       -0.011489547 -0.0016649517 -0.0045091687 -0.0044988855
0000c0 46 3f 4a bc db 23 07 bc a6 c7 a9 3b 81 2d 53 bb
       -0.012344187 -0.008248295 0.0051812707 -0.0032223167
0000d0 0c 61 e1 bb c3 99 2b bc a9 a9 6d 3b 49 d8 92 bb
       -0.006878024 -0.010473671 0.0036264455 -0.0044813496
0000e0 08 c4 e7 39 a7 78 9f 3b aa 9a 13 bb 56 eb 4c 39
       0.00044205808 0.004866678 -0.0022522607 0.00019542626
0000f0 08 3c 86 bb 4a 20 cb ba b7 c1 a1 3c b6 0e d0 3b
       -0.0040965118 -0.0015497294 0.01974569 0.00634941
000100 16 90 b6 3b f9 54 ba bb d8 19 a4 b9 cb ab 83 3c
       0.0055713756 -0.005686399 -0.00031299773 0.016073128
000110 9e 20 8d bb e7 e1 4e 3a 9d f3 44 3c 45 fa 21 3c
       -0.004306867 0.00078919384 0.012020973 0.009886329
000120 d3 cc af b8 50 aa 4b bc 32 f1 45 ba 49 3a 83 ba
       -8.382802e-05 -0.012430742 -0.00075508945 -0.0010011877
000130 4f d3 45 3b 52 41 bb bb dd 51 26 bb 62 5c 9c bb
       0.0030185764 -0.005714574 -0.0025378384 -0.004771755
000140 f1 f9 1a bb 5b e6 03 bc 45 5e 92 3b 9b 82 88 3c
       -0.0023647512 -0.0080505265 0.004466804 0.01666384
000150 6b 35 c5 ba b4 6b 9f bb 12 c0 79 bc 35 41 aa b9
       -0.0015045827 -0.004865134 -0.015243547 -0.0003247351
000160 7f d9 01 3b 14 81 76 bb 11 33 81 3a 4f 7c ce bb
       0.0019813476 -0.0037613558 0.0009857138 -0.00630144
000170 04 29 0e bc 50 a0 00 bb 97 49 d5 bb f4 fb 62 3b
       -0.008676771 -0.0019626804 -0.0065090167 0.003463504
000180 ef 49 8f ba 4b 8a c3 bb a0 48 fc ba ff 21 26 3b
       -0.0010932068 -0.0059674135 -0.0019247718 0.0025349853
000190 02 a6 9d bb 92 eb 33 3b b0 d1 9b bc 6b 2d ea bb
       -0.0048110494 0.0027453643 -0.019020885 -0.0071465275
0001a0 4a 1b d3 ba b4 01 66 ba 70 8c b1 bb c2 02 86 3b
       -0.0016106155 -0.00087740575 -0.005418353 0.004089684
0001b0 4f dc 40 3b d6 97 75 3b f1 76 07 bc b5 18 47 bb
       0.002942819 0.0037474534 -0.008268104 -0.0030379717
0001c0 38 0c a8 3b ca b4 5c ba 48 5c 86 3b 9c fb b1 bb
       0.0051284097 -0.00084192737 0.0041003563 -0.0054316055
0001d0 33 98 98 3c 28 23 eb b7 c6 b9 0d bb 90 f4 b6 3a
       0.018627262 -2.8030554e-05 -0.0021625622 0.0013958383
0001e0 cd e8 3e 3b 00 31 16 3c 13 71 99 3b 86 fd df bb
       0.002913046 0.009166956 0.004682669 -0.0068356423
0001f0 09 98 b8 bb 11 db 8d bb 7e d8 ae 3b 73 3e fe 3a
       -0.0056333584 -0.0043290933 0.0053358665 0.0019397273

network_body._body_endoder.seq_layers.0.weight f4 [128, 6]
000000 77 c9 ad 3e e4 4b 74 be 16 78 b4 be ac 16 1c 3d
       0.33942768 -0.23857075 -0.35247868 0.03810756
000010 f5 e2 25 3f 12 2b 07 3e 1f 80 2e be aa 0e 8a 3e
       0.64799434 0.13200024 -0.17041062 0.26964313
000020 a8 88 c0 3e c8 44 84 bc 99 b9 10 3f ff 38 f8 be
       0.3760426 -0.016146079 0.565332 -0.48480985
000030 00 12 03 bf f3 fd 6f 3e 31 90 b2 bd 41 43 c6 bd
       -0.5119934 0.23436718 -0.087189086 -0.096807964
000040 da 23 c7 bd c8 f0 9f be 10 53 d5 bc 79 6c f3 3e
       -0.09723635 -0.3123839 -0.026040584 0.47543696
000050 9d d1 4a 3f 37 57 3e bf fa 1c 5f be fe 07 66 3e
       0.79226094 -0.7435183 -0.21788397 0.22463986
000060 e4 f6 91 bd 9f bb 4f 3e cb 10 b8 be 25 a1 8f 3f
       -0.07127169 0.20286416 -0.35950312 1.1221052
000070 ac 90 f6 be f9 38 4c 3d a8 5e 5e 3e ea 44 7f bf
       -0.4815725 0.04985902 0.21715796 -0.9971453
000080 eb ed 37 3e e2 0c 06 bf 48 61 11 bf 25 44 20 3e
       0.17961852 -0.5236341 -0.56789064 0.15650995
000090 1c ba 20 3f 96 69 87 be 51 1c 33 3f af 43 a9 3e
       0.6278398 -0.26447743 0.6996508 0.3305945
0000a0 b0 ad a7 3d dd 97 30 be 0d 1d fc be bf c3 b8 bd
       0.08187425 -0.17245431 -0.49240914 -0.090217106
0000b0 e6 e3 46 3d 21 05 9f be 43 06 1c 3f 4d d5 14 3e
       0.048557185 -0.310586 0.60947055 0.14534493
0000c0 4c cd 8a 3e 03 22 33 3e f0 d4 11 bd 42 fb ee 3c
       0.27109754 0.17493443 -0.035603464 0.029172543
0000d0 33 76 90 be e9 c7 cb be 44 91 f9 3e 87 77 38 bc
       -0.2821518 -0.39800957 0.4874364 -0.011258966
0000e0 d5 98 d9 3d 0d ff 4f 3e bf 45 96 be 56 30 03 bf
       0.106248535 0.20312138 -0.29350087 -0.5124563
0000f0 5f fa 98 be 90 0d 3f 3d 1c 3b 01 bf 7a 91 8e 3e
       -0.29878518 0.046643794 -0.5048082 0.27845365
000100 e2 3d a0 be 45 1e 07 3e 19 ca 1c 3f 3e de 18 be
       -0.31297213 0.1319514 0.61245877 -0.14928529
000110 24 23 97 3e c4 58 fd 3e 75 bb 56 be 9f 7e 93 be
       0.29518998 0.49481785 -0.20969947 -0.28807542
000120 48 cf 1d be c7 d6 f0 3d a1 42 b7 3d 04 b5 bb be
       -0.15411103 0.117597155 0.08948255 -0.3666154
000130 c0 4f 52 bd b7 37 78 3e 08 f4 85 be cd d6 f3 bd
       -0.051345587 0.24240004 -0.26162744 -0.119062044
000140 35 33 53 bd 40 ad a1 be a7 c1 4d bf 96 cd 99 3d
       -0.051562507 -0.31577492 -0.80373615 0.075099155
000150 51 bf 22 be b3 75 ec be a5 2c eb bd 03 9a 84 3e
       -0.15893294 -0.46183547 -0.11483125 0.25898752
000160 05 92 aa 3e bf 84 eb 3e aa 90 51 be 23 f0 5f 3f
       0.3331453 0.45999715 -0.20465341 0.87475795
000170 48 6f 8d 3e 97 28 48 be b3 50 ef be 1c 1a 2c 3e
       0.27623963 -0.19546734 -0.46741256 0.16806835
000180 c6 d7 b9 3d f2 50 d1 3c 66 fd 2c be d0 62 cb 3e
       0.09074359 0.025551293 -0.16893539 0.39723825
000190 05 b9 a6 3d a0 58 52 3f c8 84 ba 3e 26 28 4d 3f
       0.081407584 0.8216648 0.3642943 0.80139387
0001a0 fa e3 4b bf ae a6 49 3e 5d 8a bf bd 72 6b b8 3e
       -0.7964474 0.1969249 -0.093525626 0.36019474
0001b0 39 e6 94 bc 01 c1 4c be 7a 3d 20 3f bb ed 15 be
       -0.018176185 -0.199955 0.62593806 -0.14641468
0001c0 87 64 1b 3d 37 c7 fb 3e 29 7b a8 be e3 2d 1e 3d
       0.037937667 0.49175426 -0.32906464 0.03861798
0001d0 bb 60 e4 be 4c ca b0 3d c4 10 56 be 5f 45 1b 3f
       -0.4460505 0.08632335 -0.20904833 0.60652727
0001e0 98 1d f7 be e5 23 b4 bd 41 25 49 bd c4 1f 07 3d
       -0.48264766 -0.08795909 -0.049107794 0.03298928
0001f0 30 4f d2 3d 01 06 a1 3e 8d df 6b 3e 51 bd 9f 3e
       0.1026901 0.31449893 0.23034497 0.31199124
000200 a2 bb ae be 7e 5a 84 be 34 b9 27 3f 29 ff 1c be
       -0.34127527 -0.2585029 0.6551697 -0.15331711
000210 e6 72 4a bd c6 49 d8 3d 99 d9 1c bf c4 2a 82 3d
       -0.049425982 0.10560946 -0.6126953 0.06355813
000220 61 98 52 3e af 05 35 3f 8f d7 67 3f 7c 04 07 be
       0.2056594 0.707118 0.9056329 -0.13185304
000230 4e 67 f9 bc 5d cc ba 3e 93 6e f4 3d 69 bc ce 3e
       -0.030444767 0.36484042 0.11935153 0.4037812
000240 6a bb 30 3e df 66 99 bd 5a c2 6a bf b5 fd 68 bd
       0.17258993 -0.07490324 -0.91702807 -0.05688258
000250 b4 f0 88 3e c9 ed b7 be d9 04 b7 be fa 66 c3 3e
       0.26746142 -0.35923603 -0.35745886 0.38164502
000260 b0 42 14 bf aa 51 37 be 91 46 7c 3e b2 eb 6b be
       -0.5791426 -0.17902246 0.24636294 -0.2303913
000270 98 9f fa 3d 1a 4e 8b be f7 98 c9 be 7d 36 ec be
       0.12237471 -0.27208024 -0.39374515 -0.4613532
000280 ca e6 03 3f 2e 4b fb 3e 08 3f e6 bb e2 c1 52 be
       0.5152403 0.49080795 -0.007026557 -0.20581773
000290 7c eb ae 3f ef ef bf 3d de c4 25 3f cd 25 0b 3e
       1.3665614 0.093719356 0.6475352 0.13588639
0002a0 05 72 82 be ca 3f 82 bd c2 d4 01 be ff 09 cd be
       -0.25477615 -0.06359823 -0.12678817 -0.4004669
0002b0 ad fb 07 3f f8 4c 6c 3e 3c 87 00 be 52 9a c5 3d
       0.531184 0.23076236 -0.12551588 0.09648575
0002c0 a6 ca b2 be f5 43 ca 3d cc c0 4c 3e 66 ce 20 3e
       -0.34920233 0.09876243 0.19995421 0.15703735
0002d0 c0 ed a1 3e 42 dc b1 3e 93 d6 4e 3e 73 79 f5 3d
       0.316267 0.34738356 0.20199041 0.11986055
0002e0 ab af 6e bf 5d 45 4d bd 44 84 7c 3d fd 30 b3 3f
       -0.932368 -0.050114978 0.061649576 1.3999325
0002f0 c7 d5 c4 be c6 b4 2c 3e 66 0a 8c 3e 54 ef 06 3f
       -0.3844435 0.16865835 0.27351683 0.52708936
000300 59 2d f9 3e 95 b9 3f 3f 04 a0 fe 3d a0 ea ab 3c
       0.4866741 0.7489255 0.12432864 0.020985901
000310 14 87 8e be cf c8 e4 3d 7c ce 21 be e0 89 f1 be
       -0.2783743 0.11171114 -0.15801424 -0.47175503
000320 96 8a d5 be 07 5b b9 3e 37 c4 9c 3b db 67 80 3e
       -0.41707295 0.3620226 0.004784133 0.25079235
000330 9b 57 b4 bf d4 11 be 3e 22 5a c0 be 1e 90 84 be
       -1.4089235 0.37122977 -0.37568766 -0.25891203
000340 f8 37 55 be e2 e5 a0 be 3b cd 7b 3d 6a 09 c6 be
       -0.20822132 -0.31425387 0.06147502 -0.38679057
000350 4f e6 8c be 95 cb 30 3f 49 48 c7 3e 87 a2 d6 be
       -0.27519462 0.6906064 0.38922337 -0.41920874
000360 dd 48 64 3c 6c f0 58 be a5 c4 e1 3e 81 54 80 3e
       0.013933388 -0.21185464 0.4409534 0.2506447
000370 04 fa 1b bf 7a 45 7f 3e 74 ad 09 3c 51 1b fb 3e
       -0.6092837 0.24928847 0.008403171 0.49044278
000380 a4 b5 47 3f b4 7f 76 3d 91 49 66 be 35 1e 90 be
       0.78011537 0.06018038 -0.22489001 -0.28148046
000390 fb ca 18 be 2e ea e3 3e 44 43 d8 3d c1 f5 98 3e
       -0.14921181 0.44514602 0.10559705 0.29874995
0003a0 57 71 61 bf b6 ab 95 3e c8 46 1e 3e 40 78 5f bd
       -0.8806357 0.29232568 0.15456688 -0.05455804
0003b0 25 dc e8 be 72 f2 48 be 2f d2 80 3e 83 37 f1 3d
       -0.45480457 -0.19623736 0.25160357 0.11778166
0003c0 14 80 dc 3e 1c 19 8f be 6a 73 1d 3d 64 53 d9 3e
       0.43066466 -0.27948844 0.038440146 0.42446434
0003d0 c5 ef 66 bf 60 9b 00 3f c3 cd 03 3f 7f 29 3c 3d
       -0.9020961 0.50237083 0.5148584 0.04593801
0003e0 f1 e9 6a 3e 9e 3b 1e 3f 1f 6e 22 be 66 3d 2f bf
       0.22940804 0.6180972 -0.1586232 -0.6845306
0003f0 c6 ed 4a 3d eb de 20 3f f7 31 42 be 7e 1f 87 be
       0.049543165 0.62840146 -0.18964373 -0.26391214

network_body._body_endoder.seq_layers.2.bias f4 [128]
000000 a0 59 c7 3b 2f e5 95 3b a4 ff 73 3a 57 04 ad 3a
       0.006083682 0.00457444 0.0009307808 0.0013200146
000010 f9 cf d8 bb 3c f1 1e 3a 84 df 9b 3b 3a 2b c6 3b
       -0.006616589 0.00060631684 0.0047568697 0.0060476335
000020 c9 5e 86 3a dd 2c 86 3b 49 e8 55 bb 0c 61 51 bb
       0.0010251637 0.0040947036 -0.0032639673 -0.0031948714
000030 73 99 32 bc 66 e3 1f 39 7e f4 78 bb 30 2c 55 3b
       -0.010900843 0.00015248134 -0.0037987526 0.0032527559
000040 95 2f 22 bc 34 1d b3 bb 85 af c3 3b 7f 03 c5 bb
       -0.00989904 -0.005466128 0.0059718513 -0.0060123797
000050 37 d9 2f bb 52 8b 61 3b 19 b1 a4 3b c8 8c a5 bb
       -0.002683235 0.0034415317 0.0050259945 -0.005052183
000060 89 27 9e 3b 56 5d 28 3b 3c b7 39 bb 91 a5 65 bb
       0.0048264903 0.0025690398 -0.0028337976 -0.0035041312
000070 d5 7d 6f bb a3 a3 a6 bb 3e db 54 bb 83 b3 0b 3b
       -0.0036543508 -0.005085425 -0.0032479311 0.0021316714
000080 f1 7f d5 ba 93 e9 a9 bb f6 f6 fd 38 f2 fe 8c 3b
       -0.001628874 -0.005185315 0.0001210998 0.004302853
000090 53 fa d7 3b 63 df 51 3b 3c 58 97 3b 2d 49 87 3b
       0.0065911203 0.0032024018 0.0046186727 0.0041285963
0000a0 e2 0f 0f 39 6b 8e a9 bb fb 96 71 3b a9 22 3f 38
       0.0001364346 -0.0051744482 0.0036863673 4.557023e-05
0000b0 7a 78 ef 3b 21 75 b4 ba 11 f2 b8 bb e1 f7 ba bb
       0.007308063 -0.0013767817 -0.005644091 -0.005705819
0000c0 e6 f9 3d 3b 40 4c 95 3a 65 2c b7 b9 e2 6c 9d ba
       0.0028988062 0.0011390522 -0.00034937556 -0.0012010599
0000d0 3f 49 6c 3b 68 3b fa bb 9b c8 95 3b 1c 93 82 3a
       0.00360544 -0.0076364763 0.004571033 0.0009962055
0000e0 76 a5 43 bb 1a 3d 3d 3a 92 50 b7 bb f1 65 26 3b
       -0.002985326 0.00072188827 -0.0055943215 0.0025390352
0000f0 ca 9c fe ba c1 3b bc bb 39 ae c7 3b 2a b9 b4 bb
       -0.0019425389 -0.005744428 0.006093767 -0.0055152373
000100 e5 3a 63 3b 0d 40 0f 3a 21 12 df bb 01 6c c3 39
       0.0034672555 0.00054645614 -0.006807581 0.00037273768
000110 03 9a c2 3b d5 53 96 3b 08 24 2a 3a 6a ff 90 bb
       0.00593877 0.0045876303 0.00064903544 -0.004424979
000120 9a 8b 48 ba 62 10 04 bc f7 d0 47 3b bd 1f a4 3b
       -0.0007650197 -0.008060547 0.0030489543 0.0050086663
000130 df 3c 55 3b 26 34 45 3b cb 60 bf 3a e5 b8 c7 bb
       0.0032537503 0.0030090897 0.001460099 -0.006095039
000140 2a 58 ba 3b 5a 68 7d 39 54 ad 1b bb 5c 45 22 bb
       0.0056867795 0.00024166834 -0.0023754435 -0.002476058
000150 be 69 05 b8 25 33 2d bb 6b 37 07 bb a4 90 3b 3a
       -3.180815e-05 -0.002642819 -0.0020632397 0.0007155037
000160 96 89 8c bb 6d 8c 1e bc e0 ac b6 ba 9a f7 f0 bb
       -0.0042888625 -0.009677035 -0.0013937019 -0.007353735
000170 78 e5 25 bb 9f ed 8d 3b b8 f1 37 3b 0b 7c 72 3a
       -0.0025313776 0.004331305 0.002806766 0.0009250051
000180 64 3d 34 bb c7 c9 77 bb 46 d5 07 3b 21 71 8d 3b
       -0.0027502412 -0.0037809478 0.0020726486 0.0043164645
000190 eb 84 00 bc ec 69 b5 bb 52 b0 9a bb 89 b2 e3 3b
       -0.00784419 -0.0055363085 -0.004720726 0.0069487733
0001a0 bd f9 c9 3b b3 33 b1 3b a3 32 ee ba c4 e7 aa 3b
       0.0061638043 0.0054077744 -0.001817305 0.005215617
0001b0 eb 06 d7 b9 95 ff 58 3b aa ab 6a bb 6e 53 c0 bb
       -0.0004101315 0.0033111323 -0.0035807886 -0.0058693206
0001c0 a4 ef f3 b9 35 3b 97 ba cf d5 ab bb 09 d5 0f bc
       -0.00046527118 -0.0011538031 -0.005243994 -0.008778819
0001d0 80 fc 61 3c eb de 2b bb 69 32 26 3c a2 80 30 ba
       0.013793111 -0.0026225399 0.010143855 -0.0006733035
0001e0 48 c5 4f bb 9d 76 04 bc bc b8 d5 3b f7 6f fa 3b
       -0.0031703282 -0.00808492 0.006522266 0.007642742
0001f0 96 ae 3f 3c 7f d7 80 3b 3c 04 66 bb 8c c0 84 bb
       0.011699339 0.003931939 -0.0035097739 -0.0040512737

network_body._body_endoder.seq_layers.2.weight f4 [128, 128]
000000 1f f4 91 bd f2 86 44 bd df ae f7 3c 28 ff 23 3d
       -0.071266405 -0.047980256 0.030234752 0.040038258
000010 aa 04 86 3d 68 3c d5 bc 6c ed a8 bc d9 5d 77 bd
       0.06543858 -0.02602978 -0.020621024 -0.060392234
000020 3c 69 d8 bd 2d 6e de bc e7 8e 97 3b 7c a9 95 bd
       -0.10566947 -0.027152145 0.0046251896 -0.07307717
000030 92 62 ba 3d e8 68 cb 3d e0 c2 2a bd bd d9 05 bd
       0.09100832 0.09932119 -0.041689754 -0.032678355
000040 89 0f b9 3d 3f 4d f5 bd ae 3c 19 3d 8a 4e d1 bd
       0.09036166 -0.11977624 0.037411384 -0.10220058
000050 24 63 e3 39 61 c4 a7 bc 02 96 2a bd 30 7b 00 3e
       0.0004337068 -0.020479383 -0.041646965 0.12546992
000060 6a f3 62 bd df a6 e3 3d bc 09 17 3e 3f b0 1d bd
       -0.05540792 0.111158125 0.14749807 -0.03849816
000070 f8 6a 14 bb e8 f4 17 bc 61 7b 9c bc ef 01 df 3d
       -0.0022646766 -0.009274699 -0.0191018 0.10889041
000080 e2 cc c9 bd 5a f2 23 3e e1 6f a1 bc 6f b8 ef bc
       -0.098535314 0.16010419 -0.019706668 -0.02926275
000090 44 5e cf bd c8 77 0e be de ec 6b bd 6f f0 0f be
       -0.101254016 -0.1391288 -0.05759894 -0.14056562
0000a0 cb 51 0d 3d eb 2d 68 be 7e 02 5b 3c 4b 37 31 bc
       0.034501832 -0.22673766 0.013367293 -0.0108164055
0000b0 52 21 a9 3d 85 d0 a3 3d 09 67 74 bd 6c 39 a0 3c
       0.082583085 0.07998756 -0.059668574 0.01955863
0000c0 4d fc 48 3d b4 6f 3d bc 9f 7d e5 3d bb 53 93 3d
       0.049068738 -0.011562277 0.11205601 0.07193705
0000d0 6f 6e 1b bd 26 ea 14 3d e6 ae 90 3d 07 40 ff bd
       -0.037947115 0.036356114 0.07064609 -0.12463384
0000e0 f7 82 1d 3e 84 41 a3 bd a5 64 06 be bf 54 8c 3d
       0.1538199 -0.079714805 -0.1312433 0.068521015
0000f0 a0 57 3b be 98 fc 46 bd 8e 25 e5 3c 1a ff 02 be
       -0.18295145 -0.048580736 0.027972009 -0.12792626
000100 db 7d 4c bd b7 06 f5 3d 5d 7d b2 3b 91 16 81 bd
       -0.049924713 0.119641714 0.0054470734 -0.06303132
000110 e7 a1 a1 bd 56 1b c3 bd 4b ad 16 be 92 0f 9b bd
       -0.078922085 -0.09526698 -0.14714544 -0.07571329
000120 5f 4d cd bd 53 e2 25 be 77 7b 19 bd 1b 53 ed 3d
       -0.10024523 -0.16199617 -0.03747126 0.11588117
000130 80 b0 c0 3d 30 da 73 3e 2f 77 74 3d ab c8 aa bc
       0.09408665 0.238137 0.059683975 -0.02084764
000140 09 e0 f3 bb c6 2b 09 3e 1b 03 b1 bd 64 4c 42 3d
       -0.0074424786 0.13395604 -0.086431704 0.047436133
000150 a0 25 ce bc 1c 2b 2b 3c 93 c4 9c bd 45 fc 2e 3c
       -0.025164425 0.01044729 -0.07654681 0.010680263
000160 67 4a d2 bb 88 b8 09 3d d9 d5 5c bd 3a 6a 08 3e
       -0.006417561 0.03362325 -0.05391488 0.13321772
000170 26 1b 0f 3e c7 b4 92 bc 5a 7e e7 bb 52 86 98 bd
       0.139752 -0.017908467 -0.007064623 -0.074474946
000180 a8 82 5c bd 78 0d 23 3e 21 6e da bd 92 93 8e bd
       -0.05383554 0.15923107 -0.10665537 -0.069617406
000190 e6 6f 15 3e 70 af 9d bc 66 9c c2 bc 82 f6 fb bd
       0.14593467 -0.019248694 -0.023756217 -0.12302877
0001a0 58 45 40 3e 19 ad b0 bb e0 72 37 3d 55 2b 8d 3c
       0.18776453 -0.0053917286 0.044787288 0.017232576
0001b0 f8 76 c7 bd 0e df 4e bd bd 85 96 3d 5b bb 06 be
       -0.09739488 -0.05050569 0.07349727 -0.13157408
0001c0 02 14 e1 3d ae 04 bb bd 48 e2 c6 3d d1 ee 19 3e
       0.10990144 -0.09131752 0.097111285 0.15032507
0001d0 e0 4a 3f bd 0d 1f 00 3e 77 2b 53 be 3c a2 20 be
       -0.046702266 0.12511845 -0.2062205 -0.15686888
0001e0 f1 9b b6 bd f4 12 5d bd 67 9b 6d 3e b9 cc 49 bd
       -0.08916462 -0.053973153 0.23203813 -0.049267504
0001f0 01 6a 81 bd 73 91 65 be 8f 81 82 3d 7b a7 cb bd
       -0.06319047 -0.22418766 0.063723676 -0.09944054
000200 f9 41 aa 3d 91 46 11 bd c3 16 45 3d 1a fd 89 3d
       0.083133645 -0.035467688 0.04811741 0.067377284
000210 b5 e8 7d 3e 82 0b 0d ba 69 bc 83 3d 32 94 d7 bc
       0.24795802 -0.0005380438 0.06432421 -0.026315782
000220 4d 35 8d bd 61 42 d6 ba 5a b9 6c 3d 6c 5c ac 3d
       -0.06894932 -0.0016346687 0.057793953 0.084160656
000230 65 fc d4 3d ba c5 8a bd d2 d2 ae bd 05 0f 81 3c
       0.10399703 -0.067759946 -0.085363045 0.015754232
000240 28 aa 4c 3d fb 4f 58 bd 55 af d8 3d bd f0 9a 3c
       0.04996696 -0.05281065 0.10580317 0.018913621
000250 79 40 00 3d 12 a5 f6 3d d6 bb bd bd 19 3d 55 3e
       0.031311486 0.120432034 -0.092643425 0.20824088
000260 3a 25 20 be 98 97 11 be 9e ae 23 bd 89 f4 c2 3d
       -0.15639201 -0.14217985 -0.03996145 0.09519298
000270 11 c6 d3 bc 80 64 5c 3d 32 20 4d 3c 5b c3 0c be
       -0.025851281 0.05380678 0.012519883 -0.13746397
000280 cd 6e bf 39 eb 69 3b 3d 84 23 23 bd 05 15 dd bc
       0.00036512912 0.045755308 -0.039828792 -0.026987562
000290 df 08 8a 3c 35 5f 51 3d 63 49 93 3c ff 05 d7 bc
       0.016849933 0.051116187 0.01797933 -0.026247976
0002a0 58 77 6f be 74 b1 35 bd 93 22 2f 3e ab 1b aa 3d
       -0.2338537 -0.044358686 0.17103033 0.083060585
0002b0 1f 38 4a 3d b9 d4 21 be af 0f 0f 3d a9 cc 27 be
       0.049369927 -0.15803804 0.034927066 -0.16386665
0002c0 24 57 a0 bc 50 94 81 be 51 dd 13 3e df 22 81 bc
       -0.019572802 -0.25308466 0.14439894 -0.015763698
0002d0 bb ff fe bd dc 7a 5a 3c d2 43 be bc 57 ff 8f 3d
       -0.124511205 0.013334956 -0.023225699 0.07031124
0002e0 61 d3 f4 3d ca 65 2f bd 59 9d 3b 3d d9 5a ad 3d
       0.1195438 -0.042821683 0.045804355 0.084645934
0002f0 2c 30 8e ba 85 2e 21 3d af 82 b9 3d 57 9a bd 3b
       -0.0010848097 0.039351005 0.09058129 0.005786221
000300 34 85 0d bd 1d 41 13 3c 33 2a 1b be da b1 1f be
       -0.03455086 0.008987692 -0.15152816 -0.15595189
000310 41 81 cc bd 71 45 41 3b c4 7a 6b 3d 81 64 7f 3d
       -0.09985591 0.0029490853 0.057490125 0.062351707
000320 93 55 ab 3c 28 8f 2e be 9d 8b 8c 3d a2 04 72 bc
       0.020914828 -0.17046797 0.068625666 -0.014771612
000330 34 f6 9c 3d e0 bc 9d bd 07 50 95 bd 24 62 3b bd
       0.07664147 -0.07702041 -0.07290655 -0.04574789
000340 36 af 38 3d 50 c6 de bc dd dd 38 be f5 9c 42 bd
       0.04508897 -0.027194172 -0.18053384 -0.047512967
000350 37 bd 9c bc fa 27 1a 3e 51 da 94 be 27 15 4e bd
       -0.019133193 0.15054312 -0.29072812 -0.05031314
000360 16 80 30 bc 01 e2 25 3e bb 16 73 bc c3 4d 26 3d
       -0.010772726 0.16199495 -0.014836962 0.040601503
000370 27 d0 4c 3e eb 00 0e 3e 53 3a f4 3d 41 8d 87 bd
       0.20001279 0.13867538 0.11925187 -0.06618739
000380 2a 24 66 bd a4 05 19 3e 33 86 69 bd ac f2 97 bd
       -0.056186832 0.14943558 -0.057012748 -0.07419333
000390 52 c7 4b 3d 7b 5a 7e bd c8 74 6d bd 35 90 4d bc
       0.049750634 -0.062098008 -0.0579727 -0.012546589
0003a0 32 d2 5b bd 3d 1f 89 3b 43 fa e5 3b a7 91 84 bd
       -0.053667255 0.004184632 0.007018359 -0.064730935
0003b0 9f 7c 5e 3e 92 c8 17 3c c4 78 4d bd f6 2f 17 bd
       0.21727227 0.009264128 -0.050164 -0.036910973
0003c0 be 29 9f 3c 75 db da bd a9 8b b4 3d f7 b6 52 bd
       0.019429084 -0.10686389 0.088157006 -0.05144402
0003d0 2e b6 6c bd d0 f5 bd 3d 61 63 e4 bd 5c c5 ab bc
       -0.057790928 0.09275401 -0.111517675 -0.020968132
0003e0 2e 24 51 3e f6 bf 75 3d 9a 20 d2 3c a3 de 98 3c
       0.20423958 0.05999752 0.025650311 0.018660849
0003f0 50 45 80 bd 58 b4 2a be ce 34 df bc 08 de 99 3d
       -0.0626322 -0.16670358 -0.027246859 0.07513052
