Assets/ML_Brain/MoveToGoal 2.onnx (onnx, 72383 bytes, 7 tensors)

39 f4 [1, 2]
000000 12 c8 17 bd 08 dc 50 bd
       -0.037056036 -0.05099109

distribution.mu.bias f4 [2]
000000 a3 49 2d 3b 9f dd ce bb
       0.0026441596 -0.0063130404

distribution.mu.weight f4 [2, 128]
000000 40 18 b6 3c 47 1b 15 3c 57 eb a2 3c 7d ec 15 bc
       0.02222836 0.009100742 0.01988761 -0.0091506215
000010 81 d6 7d 38 8c 13 b0 3b c3 ed c7 3b 57 15 1b bc
       6.0519673e-05 0.005373424 0.0061013415 -0.009465537
000020 78 60 8b bc de 9a f4 ba 4d 1b 50 3c c1 66 96 bb
       -0.017013773 -0.0018661877 0.0127018215 -0.004589886
000030 c0 c6 f8 3b 83 be 77 3c 2f 05 82 ba 12 fc c3 3c
       0.007592052 0.015121105 -0.0009919758 0.023923907
000040 9d da 63 bc cc 53 84 bc fd 5a 8e 3c 28 83 03 bc
       -0.013907102 -0.016153239 0.017377371 -0.008026876
000050 f3 34 bb 39 39 1f d8 3c 5a 98 c5 3a 57 4e be 3c
       0.0003570687 0.026382076 0.0015075312 0.023230715
000060 29 06 3e 3c 43 06 23 3d 6e be bd bc 02 34 f3 3c
       0.011598148 0.039800894 -0.023162093 0.029687885
000070 8b a8 8a bc 7c 07 38 ba ce d9 56 3c bd 5d 74 bc
       -0.01692607 -0.0007020158 0.013113452 -0.014914927
000080 4d b5 2c 3c 75 08 12 bd 26 98 96 3c 10 ba 7a 3b
       0.010541272 -0.035652597 0.018383097 0.0038257875
000090 b2 07 13 3c f6 ac 1d bd 71 89 ed 3b 04 7d 2b bc
       0.008974003 -0.038495027 0.0072490503 -0.010466818
0000a0 49 da a8 3c d7 df 4f bd 81 61 98 bc 4b 87 ba bc
       0.020611899 -0.05075058 -0.018601181 -0.02276959
0000b0 8e 5e 01 bb 65 7d f9 bb 28 e8 2f bc 8f 5f 22 bd
       -0.0019740197 -0.007613825 -0.010736503 -0.039641913
0000c0 cf c4 db bc 33 d2 5b bb 32 d0 6c 3b bb 94 96 b9
       -0.026827244 -0.0033542037 0.0036134836 -0.00028721042
0000d0 85 56 a9 bc f9 01 03 bd a4 71 ae 3b 4e 64 f0 3b
       -0.020671139 -0.031984303 0.0053236056 0.007336176
0000e0 78 af 1b bc 0a f2 f8 3b a6 c8 ee 3b 54 bc a4 bc
       -0.009502284 0.0075972127 0.0072871028 -0.020109333
0000f0 3a ea 0b 3d e2 dc 27 3c 16 03 f9 3b 89 b5 cb 3b
       0.034158923 0.010245534 0.007599245 0.006216709
000100 4c 38 04 3c 91 93 1a 3c e5 67 16 3b f1 c6 0b bc
       0.008070063 0.009434597 0.002295011 -0.008531318
000110 be 58 88 bc b3 e6 02 bc 1c b5 a7 3b d5 8b a5 3b
       -0.016643878 -0.007989573 0.0051180255 0.0050520697
000120 9f 1f d4 3a 50 2a f3 b9 62 8f 87 bc 64 9c 04 bd
       0.001618374 -0.00046380097 -0.016547862 -0.03237571
000130 2e 36 73 bc 5e 31 ee 3c ab 23 a4 bc 8b 04 4a ba
       -0.01484446 0.029076274 -0.020036539 -0.00077063654
000140 c0 f7 6a bb 56 d3 fd 3c a9 d7 9d 3c 57 64 13 bc
       -0.0035853237 0.030984562 0.019267874 -0.008996091
000150 e1 e2 16 3d 00 59 1f 3d ef 9b 84 3c af 78 49 3c
       0.036837462 0.038903236 0.016187636 0.01229684
000160 c7 1c f6 3c 37 51 3f bd d4 2a f3 3c 2d 98 85 3c
       0.030043019 -0.046708312 0.029683508 0.016307915
000170 62 19 19 3d a1 8d b8 3c 16 4a a3 bc c2 53 a5 bc
       0.037377723 0.022528471 -0.019932788 -0.02018154
000180 45 f4 de bb 2f a7 07 3b 49 3d 04 bc d4 66 e0 3c
       -0.0068040215 0.0020699014 -0.008071252 0.027392782
000190 18 f2 0f 3c ed 86 dc 3c e1 0d 9a 3c 76 bb d9 b9
       0.008785747 0.026919806 0.018805446 -0.00041529135
0001a0 a1 2c 3b 3c ec 7f bd 3a 7c 37 0d bb 46 aa 0c 3d
       0.011424215 0.0014457679 -0.0021547964 0.034342073
0001b0 77 e0 a9 3c 90 9a f5 bc 9e 8a 5c 3c 02 8e aa bc
       0.020736916 -0.029980928 0.013460783 -0.020819668
0001c0 47 67 3f bd 4f 9e f9 3b 30 74 7c 3c ad ba 21 bd
       -0.046729352 0.007617749 0.015408561 -0.03948467
0001d0 a2 a2 b7 bc b6 f1 2f bc 9a bf 50 3c 0c d6 ec 3c
       -0.022416417 -0.010738781 0.012740994 0.02891066
0001e0 10 05 64 bd 3a 78 76 bc 32 53 cd 3c 01 e7 a7 bc
       -0.05566889 -0.015043313 0.025064085 -0.020495893
0001f0 6b d5 1d 3c 57 94 f2 3b b0 1b 0e bc 03 91 70 3c
       0.009633402 0.0074029374 -0.008673593 0.014683011
000200 cc d3 35 3c ea 24 28 3b 6b 6e 70 3a 3e 5c 7c bc
       0.01109786 0.0025656768 0.0009171727 -0.015402852
000210 55 3b 20 bb 94 18 d4 3c 30 bd 48 3c 0e 17 93 3c
       -0.0024449427 0.025890626 0.012252137 0.01795533
000220 c0 e5 bd bc c8 55 c0 bc fb 5d 2e 3b 82 d4 80 bc
       -0.023180842 -0.023478404 0.002660631 -0.015726332
000230 79 9d c4 3c c0 4f 58 3b c3 02 15 bc 3f 25 a7 3c
       0.02400087 0.003300652 -0.009094897 0.020403503
000240 12 42 2a 3b 59 64 9f bc c8 3f b2 3a 39 4b 76 bc
       0.0025979322 -0.01945703 0.001359933 -0.015032583
000250 97 78 05 3d ed fb e5 3c 10 42 01 36 4c 99 08 bb
       0.032585707 0.02807423 1.9260951e-06 -0.0020843325
000260 d0 76 57 bb 4c a6 9d 3b b7 f9 75 bc 7b d6 44 3c
       -0.0032877214 0.004811084 -0.01501315 0.012014027
000270 4e 2e 03 3d 96 f2 f9 bc d2 33 44 bc c6 7d d2 bc
       0.03202658 -0.030511182 -0.011975246 -0.02569474
000280 83 3b 0c bd 86 c1 3e 3b 99 bc f2 3c f1 73 ef bc
       -0.034236442 0.0029107048 0.029630946 -0.02923009
000290 0a 8b b6 3c 76 7f 9d 3c e4 1d 1b bb 99 7b ec 3c
       0.022283096 0.019225817 -0.002366894 0.02886753
0002a0 0c a7 cf 3b f3 31 ae 39 3b 60 81 3c 06 20 c8 bc
       0.006337052 0.0003322508 0.015792957 -0.024429332
0002b0 8d c3 30 bb c2 70 93 3c 6f db 27 bc 28 d7 c4 3c
       -0.0026972026 0.017998103 -0.010245188 0.024028376
0002c0 9c 18 d3 3b ca d0 8d bb 3c ca 82 3c 5d 87 d8 ba
       0.0064421427 -0.004327868 0.015965573 -0.0016519834
0002d0 8b 32 b6 bb 3a 73 ce 3b 67 26 8b bc 31 6a 28 bb
       -0.0055602244 0.006300357 -0.016986085 -0.002569806
0002e0 6c 0f 5e 3c 22 df e8 3c 60 eb c8 3c 6a 9d 2c bc
       0.013553482 0.02842671 0.024526298 -0.010535577
0002f0 b8 8e 0d bd de de a5 bb 9a 03 fe bb 1b 09 40 3c
       -0.034559935 -0.005061968 -0.007751894 0.011720921
000300 9b 61 31 3c 81 b9 cd 3c 59 78 81 3c dd 7b 30 3c
       0.010826494 0.02511287 0.015804457 0.010771719
000310 c8 25 75 3c 1a cf 81 bc 90 bd ad bc 3a 88 67 3c
       0.014962621 -0.015845824 -0.021208555 0.0141316
000320 85 54 14 3c 14 77 49 3c 71 b7 28 3d d5 84 bb 3a
       0.009053354 0.012296457 0.04119057 0.0014306555
000330 1e b2 71 3c db ac c0 bc d7 78 bc bc a3 54 93 3c
       0.014751939 -0.023519924 -0.02300684 0.017984694
000340 44 fd 72 3c 04 22 c5 bb bc 1e ca bb d0 10 04 3d
       0.014830891 -0.006016018 -0.0061682146 0.032242596
000350 43 c4 31 3c fe 86 28 bb 6f 5e 0f bc 5d c0 0b bc
       0.010850015 -0.0025715227 -0.008750542 -0.00852975
000360 22 7f b6 3c c5 60 dd 3a f6 32 30 3d 5d 86 71 3b
       0.022277419 0.0016889801 0.04301735 0.0036853768
000370 8b 31 be bc 74 ee d0 3b 7d f9 ae 3c 19 a8 17 bd
       -0.023216983 0.006376082 0.0213592 -0.037025545
000380 fb 29 8c 3c 47 1c 28 3d a0 a8 f9 bc b3 5e e6 bb
       0.017109862 0.041042592 -0.030475914 -0.007030332
000390 dd 23 35 3c 96 f4 b6 3b 63 e9 cb 3b b4 68 2a 3d
       0.011055914 0.005583356 0.00622289 0.04160376
0003a0 66 e6 39 3c 5c 7c e3 3c fb dd e1 3a eb 0e ab 3a
       0.011346435 0.02776926 0.0017232293 0.001305071
0003b0 0a 2f 8d 3c 33 d6 32 bc b1 16 3f bc 7e c2 3b 3d
       0.017234344 -0.010915327 -0.011663125 0.04583978
0003c0 e7 f1 3a 3c 04 1f 5d 3c f1 5b 86 3b 09 de 2b 3c
       0.011410213 0.013496164 0.0041003157 0.010489949
0003d0 78 87 8e 3b 8a 0d 47 bc b9 d1 70 3c d3 90 50 3c
       0.004349645 -0.012149224 0.014698439 0.012729841
0003e0 d4 31 fb b9 5e 5b 66 3c 52 88 89 bc 7e 6a 62 bc
       -0.00047911576 0.01405987 -0.016788635 -0.013819335
0003f0 4c b8 ba 3c ee f2 47 3c 05 e1 01 bb 89 3b c3 3c
       0.022792958 0.012203915 -0.001981796 0.0238321

network_body.linear_encoder.seq_layers.0.bias f4 [128]
000000 50 8f ac bb e3 77 92 bb cd 91 c0 3b b6 53 c3 3b
       -0.0052661076 -0.004469858 0.005876756 0.005960907
000010 f8 f5 e7 3b 6f be 1e 3b 9b b7 e4 bb 03 c7 b6 3c
       0.0070788823 0.0024222394 -0.0069798953 0.022311693
000020 ce fb ee 3b 32 15 cc bb 32 74 61 3b a4 a1 8c 3c
       0.007293201 -0.0062281126 0.0034401533 0.01716692
000030 33 7c ac bb c1 aa b9 bc f1 f8 26 bb ac 22 b1 3a
       -0.005263829 -0.02266443 -0.002547797 0.0013514361
000040 e6 d0 1e bc 9a 74 b0 3b dd fb af 3b 78 59 a4 bb
       -0.00969336 0.0053849937 0.0053706006 -0.0050155483
000050 b5 7b b8 bb 12 f1 ac bb ab a3 00 bc af 0b f1 bb
       -0.0056299814 -0.0052777613 -0.0078515215 -0.007356129
000060 6f 36 91 39 0d 33 b6 3b a7 21 ac b9 6b 8b 85 39
       0.0002769711 0.005560285 -0.0003283147 0.0002547161
000070 20 01 39 bb e4 7e bb bb 74 70 84 3a dd 7e 07 3a
       -0.002822943 -0.0057219137 0.0010104314 0.00051687454
000080 7a a9 1c 3b fe a7 b4 bb 51 79 45 3c d5 21 b1 ba
       0.0023904727 -0.0055131903 0.01205285 -0.0013514111
000090 b6 26 2e 3c 4c 69 fc bb 91 4b a8 bb a9 ec ff bb
       0.010629347 -0.007702982 -0.0051359613 -0.0078101945
0000a0 50 1e f9 39 46 96 40 3c b2 67 33 3b 72 a8 b4 3b
       0.00047515566 0.011754578 0.002737504 0.0055132443
0000b0 f1 57 6d bc 25 37 e2 bb cf 4a cd bb 33 ca e7 3a
       -0.014486299 -0.0069035464 -0.0062650214 0.0017684161
0000c0 18 20 24 bc 7e 3d c6 bb 43 c2 b7 bb 5f 4c d7 bb
       -0.010017417 -0.006049811 -0.0056078746 -0.0065703834
0000d0 73 76 46 bc aa 82 52 bc 24 09 11 bc 96 32 13 ba
       -0.012113201 -0.012848536 -0.008852277 -0.0005615143
0000e0 fc 68 22 bc 81 e2 dc bb b3 f1 f0 bb fc 6e 7a bb
       -0.009912726 -0.0067408686 -0.0073530315 -0.0038213124
0000f0 a6 0c 81 bb e1 04 e1 bb bc 5d cc ba 2f 83 6a bc
       -0.0039382754 -0.0068670367 -0.00155919 -0.014313503
000100 5e d8 99 3b 0c d4 af bb dc a3 59 3b 77 ab ff bb
       0.0046949824 -0.005365854 0.003320924 -0.0078024226
000110 b1 6d 86 bb b9 25 c5 bb 49 cb 86 3c 07 1a 28 3b
       -0.0041024317 -0.00601646 0.016454356 0.002565028
000120 b7 e4 ff 3b eb 3a 5a bc e0 8c 93 3a 50 aa a9 bb
       0.0078092474 -0.013319711 0.0011257194 -0.0051777735
000130 c0 c9 bb bb 65 0f 25 bc 06 e0 0a 3c 4b 8e b7 bb
       -0.0057308376 -0.010074471 0.008476263 -0.0056016794
000140 ca 01 7d bb 29 19 95 3b 17 72 f5 bb 09 45 b9 bb
       -0.0038605803 0.0045501185 -0.007490407 -0.0056539816
000150 5a 67 e9 3b 4c 49 f7 ba 0d af e8 bb f1 ea ee bb
       0.007122916 -0.0018866449 -0.007100946 -0.007291191
000160 6d 90 18 3c 15 d6 ba 3b a9 15 b1 bb c1 3f d9 3b
       0.009311778 0.00570179 -0.0054041934 0.0066299145
000170 54 20 1d 3b 87 32 f3 3b 0c 0e ba 3a 95 b6 0e 3a
       0.0023975568 0.007421795 0.001419486 0.0005444077
000180 2f 00 e0 bb 3e 68 23 bc 87 f0 b5 3b 1e e1 80 3b
       -0.0068359594 -0.009973584 0.0055523547 0.003933086
000190 f2 bf cf bb 28 66 bc ba 56 2c a3 3b c8 c6 f7 3b
       -0.0063400203 -0.0014373707 0.0049796505 0.0075615384
0001a0 3c af 90 3c 9f 1a b4 3b 73 5b 74 3c ed 32 4b 3b
       0.017661683 0.0054963375 0.014914381 0.0031005696
0001b0 83 0c 92 bb d1 dc 0d bc d9 d0 b8 bb 8d 16 b0 bb
       -0.004457058 -0.008658604 -0.005640131 -0.005373782
0001c0 03 68 98 ba 2b 33 e4 b9 fc a8 57 3b f3 04 93 bb
       -0.0011627678 -0.00043525672 0.003290712 -0.004486674
0001d0 78 96 bf 3b 9e 99 d5 3b 6f b4 1f 3b 17 79 a6 bb
       0.0058467947 0.0065185567 0.0024369021 -0.005080353
0001e0 04 99 87 bb 6e e5 f6 39 2a b6 fe bb 3f a5 b1 3b
       -0.004138114 0.00047091715 -0.0077731805 0.00542131
0001f0 76 c3 7b 3a d7 57 a9 ba 1f 2c aa 3a 83 4e b3 bb
       0.0009604016 -0.0012919855 0.001298312 -0.005472006

network_body.linear_encoder.seq_layers.0.weight f4 [128, 6]
000000 02 cc 4f be a8 5a cf 3e c2 ae 2a 3e 28 c6 91 be
       -0.20292667 0.40498853 0.16668227 -0.28471494
000010 03 2f f5 3e 5c 85 25 be 42 1e 23 be 5e 10 dd 3d
       0.4788743 -0.16164154 -0.15929511 0.107941374
000020 7f e0 8c 3e f1 9c e8 bc 9d 48 c8 be 24 f0 d0 3e
       0.27515027 -0.028395148 -0.391179 0.40808213
000030 88 91 17 3d bd 7b 3c 3f e4 a6 62 3e 4e 13 83 3e
       0.037004024 0.7362631 0.22133976 0.25600666
000040 b0 57 18 bf f7 c9 16 be 1c cb 1e 3e 15 d0 d8 bc
       -0.595088 -0.14725481 0.15507168 -0.026466409
000050 6c c3 e9 3e 54 7a a7 3e 6a 01 27 be 76 8f e2 be
       0.45656908 0.32710516 -0.16309133 -0.44250077
000060 01 ea 0d be 83 17 e0 be d9 00 85 3e 4a d3 80 3e
       -0.13858797 -0.43767938 0.2597721 0.251612
000070 9a 7b 3c bf ea 68 30 3e dd d5 02 3f ed 46 1f bf
       -0.736261 0.17227522 0.5110758 -0.622176
000080 2d e2 fa 3d 5a 50 37 3f aa 96 a0 bd a7 8e c9 be
       0.12250171 0.7160698 -0.07841237 -0.39366648
000090 ec 8d 38 bf 66 cb 09 3f ab 31 5f 3e d4 b8 45 3f
       -0.72091556 0.53825986 0.2179629 0.7723515
0000a0 85 ca 6f 3f c2 c5 9d 3d 95 80 db bd f2 9e f1 bd
       0.93668395 0.07703735 -0.107178845 -0.117978945
0000b0 bb 85 a7 be f4 39 19 3e c5 54 7a 3f f3 80 43 3f
       -0.32719216 0.14963514 0.977856 0.76368636
0000c0 db a3 d3 be c6 df dc 3e 0b 1f dd 3d d3 52 1f 3e
       -0.4133595 0.43139476 0.107969366 0.15558939
0000d0 98 cc a3 3e 10 50 88 3e 76 91 57 be 97 79 a9 bd
       0.3199203 0.26623583 -0.21051583 -0.082751445
0000e0 57 f3 bc 3e 9d 40 69 3f 4e dc bf 3c 1f a6 7a 3e
       0.36904404 0.9111422 0.02342048 0.24477433
0000f0 49 65 76 3e 8f 40 21 3f cf a8 c7 bd c7 a0 24 3d
       0.24062075 0.62989134 -0.097489946 0.04019239
000100 89 36 8a bd b4 93 47 be eb 13 af be fb c3 d0 be
       -0.06748683 -0.19489938 -0.34194884 -0.4077452
000110 a5 20 2a 3f 73 9b 48 3c 6f 27 a7 3e cf 37 11 3f
       0.6645606 0.012244093 0.32647273 0.5672578
000120 57 2a 9c 3e a5 f9 59 3d 2e 0a 2d 3e 87 4c 01 bf
       0.30501053 0.053216595 0.16898414 -0.50507396
000130 7f b5 c4 be e8 03 cd be f3 0c e2 bd d3 c5 0b 3f
       -0.3841972 -0.40042043 -0.11037626 0.5459873
000140 fb d7 be be a7 48 ef be c9 bb 67 3e 16 22 2e bd
       -0.37274155 -0.46735117 0.22630228 -0.042512976
000150 fc 4c ef 3e fe f7 94 be a4 78 00 be 93 fa 7d 3d
       0.46738422 -0.29095453 -0.12546021 0.062006544
000160 5c d2 f0 be fc 4b 8f 3e 53 91 0b bf 55 09 5e bf
       -0.4703549 0.2798766 -0.5451862 -0.8673299
000170 f5 7b 22 be 60 92 ca be 9b 1a 9c 3e 80 d7 3b be
       -0.15867598 -0.395648 0.30489048 -0.18343925
000180 3e 15 5c 3f 8c 64 45 3f 15 af 07 3f 71 c3 72 3d
       0.85969913 0.7710655 0.5300153 0.05926842
000190 8e f0 fc 3e 7f 14 15 3e 55 f0 5a be 03 e2 d9 be
       0.4940228 0.145586 -0.21380742 -0.42555246
0001a0 d6 43 b7 3e 5b 61 2e 3f 16 c3 76 be 24 20 cc 3e
       0.35793942 0.681173 -0.24097857 0.3986827
0001b0 19 f7 3f 3d 5c d2 e7 3e 59 cf 58 be 3e 0a d4 be
       0.04686651 0.4527768 -0.21172847 -0.41414064
0001c0 1a 44 bc 3e 32 68 34 3f fb 5d 79 3f 5d 19 43 3f
       0.36770707 0.7047149 0.9740903 0.76210576
0001d0 29 35 b4 3d 2e cc e1 be 98 2b d3 bd 1c bb 76 be
       0.08799202 -0.4410109 -0.10311049 -0.24094814
0001e0 6c c3 00 bd 4b af c0 be f8 8f 05 3e 08 b0 23 be
       -0.03143637 -0.37633738 0.13043201 -0.1598512
0001f0 7b 4b e9 be 0a a4 2b 3e 17 d0 06 be 4f 2a 7e be
       -0.455654 0.16761795 -0.13165317 -0.24820827
000200 91 be 43 be 17 8a c7 3d 46 75 b0 be 86 e0 33 3e
       -0.19115664 0.097431354 -0.34464473 0.17566118
000210 30 3b 8a 3e bc fa b9 be 10 46 fc 3c 55 c2 96 3e
       0.2699828 -0.36324108 0.030795127 0.2944514
000220 87 9b 3d 3e 10 63 56 bd d4 57 f2 bc 0e fd 2e bf
       0.1851636 -0.052340567 -0.029582895 -0.6835488
000230 a5 c5 b0 bd 3b a9 31 bf 4b c0 f2 3c ac 90 26 be
       -0.08631448 -0.6939885 0.029632708 -0.16266125
000240 3d 54 c1 be 55 5d c8 3e 4c 56 c9 bd 63 9a 46 3f
       -0.3775958 0.39133707 -0.09830913 0.77579325
000250 95 b3 68 3d 3a 79 66 3f 59 d1 e4 bd e9 5f 25 3e
       0.056811888 0.9002873 -0.111727424 0.16149868
000260 94 02 a4 be a4 53 ca 3e 15 28 28 bf ec 40 87 3d
       -0.32033217 0.39516938 -0.6568616 0.0660418
000270 6e 56 04 bf c3 4e 92 3e b1 15 54 be 11 63 59 be
       -0.5169438 0.28575715 -0.207114 -0.21229197
000280 49 73 f0 be 04 ee 43 3e 40 d0 5b 3e 56 db 53 be
       -0.46962956 0.19133765 0.2146616 -0.20689139
000290 a7 0e 56 be e3 1c fe be 40 f9 9e be 47 05 56 bf
       -0.20904027 -0.49631414 -0.31049538 -0.836018
0002a0 e8 16 12 3f c4 1e 9c be 72 9d 78 be a0 42 92 3f
       0.570662 -0.30492222 -0.2427881 1.1426582
0002b0 ae 33 3f bf 74 8c 48 3d a8 23 93 3e 20 67 30 bf
       -0.7468823 0.04896207 0.2873814 -0.68907356
0002c0 15 8c 90 be 2a 14 e8 3e 85 3b 6a 3f e3 0b ac bd
       -0.28231874 0.45327884 0.9149707 -0.08400705
0002d0 d3 bf 79 3f 1f 37 05 3e 53 f0 60 bd 0c 14 b6 be
       0.97558326 0.13009308 -0.05491669 -0.3556217
0002e0 b4 62 fb be 2e 2b fc be d9 c6 00 3e 3c ee 1b be
       -0.49098742 -0.49251693 0.12575854 -0.15227598
0002f0 f4 7c 6a 3e 20 c3 97 be 9b 73 e1 be ed 98 95 bd
       0.22899228 -0.29641056 -0.44033512 -0.07304559
000300 d2 7c 76 3e d0 99 4a be 06 b0 70 be 82 8b 49 be
       0.24071053 -0.19785237 -0.23504648 -0.19682124
000310 2c a9 2e 3f a1 59 eb be d3 7a 0b be 5f aa 2b 3b
       0.68226886 -0.4596682 -0.13621072 0.0026194078
000320 dd d7 1c be 5d 60 cb be e0 d5 93 bf 2c 0e db 3e
       -0.1531672 -0.39721957 -1.1549644 0.4278425
000330 8d e8 23 bf 67 a7 5e 3e a3 f7 49 3f fb d7 b3 bd
       -0.6402672 0.21743546 0.7889349 -0.087814294
000340 89 33 af be 18 bf 0e 3f c1 7b a0 be 68 50 55 bd
       -0.34219006 0.55760336 -0.31344417 -0.052078635
000350 ad 2e 59 bd fb 2a 09 be 43 a1 e9 bd 95 3a cd be
       -0.05302303 -0.13395302 -0.11407711 -0.40083757
000360 4c 7d 40 3d 1e 24 81 bf 14 43 eb 3d cd cd ec 3e
       0.046994492 -1.0089147 0.114874035 0.46250764
000370 15 2d dd bd 96 e5 dc 3e 82 e7 f5 3e 4d 05 d3 be
       -0.10799614 0.4314391 0.4802819 -0.41214982
000380 86 95 19 bf 82 c3 1e 3f 73 d1 4c be 9f 54 1f bf
       -0.5999378 0.6201707 -0.20001774 -0.62238497
000390 09 64 e0 3d 83 f1 b3 3d 69 e4 d7 be c2 9c fe 3e
       0.1095658 0.08786299 -0.4216645 0.49728972
0003a0 24 9c cf be 68 5a fb bb fe 44 b7 be 93 2c 19 bf
       -0.40548813 -0.0076706894 -0.35794824 -0.5983364
0003b0 89 40 f7 be ab 75 9d bc 63 73 d0 3d e6 02 d8 3d
       -0.48291424 -0.019221148 0.10178258 0.10547428
0003c0 b2 06 4a 3e ee 05 2d 3f 8e fc 79 3d 31 87 be 3d
       0.19729117 0.67587173 0.06103187 0.093031295
0003d0 f9 b9 44 be 2a de 97 bd 18 91 3f 3f 0c 97 03 be
       -0.19211568 -0.07415421 0.7483077 -0.12850589
0003e0 11 8a 27 3f 30 1c 5f bf e8 18 d5 3e 4d e2 9d 3d
       0.6544505 -0.87152386 0.41620564 0.07709179
0003f0 97 e7 a1 3e 66 92 d3 3e 06 cb 16 bf 0a 24 10 3f
       0.31622002 0.4132263 -0.5890354 0.5630499

network_body.linear_encoder.seq_layers.2.bias f4 [128]
000000 bf 13 3f bb ca 0e 95 bb 3b 28 fe 3a 9d 45 03 bc
       -0.0029156057 -0.004548882 0.0019390652 -0.008012203
000010 1b ae de bb 20 4a dd bb 07 ee 15 bb f1 62 cb bb
       -0.0067956573 -0.006753221 -0.002287747 -0.006206863
000020 71 c2 8b 3b 8c ab bb 3b d1 83 8d ba 3f 15 b1 3b
       0.0042651226 0.005727237 -0.0010796731 0.005404144
000030 06 e7 b2 3a dc 3a 9d bb 60 d6 56 3b c5 ea 8b bb
       0.0013649173 -0.0047982763 0.0032781586 -0.00426993
000040 a4 0e d8 bb e1 93 9c bb c1 93 5b bb 4e 93 ec ba
       -0.006593542 -0.0047783707 -0.0033504816 -0.0018049271
000050 bf e3 08 3c 6a 23 74 bb fd 78 bd bb 62 5f c2 3a
       0.00835508 -0.0037252554 -0.005782245 0.0014829452
000060 a7 20 64 ba 48 94 ac b9 46 2a e3 3a 11 ab 8e 3b
       -0.00087023753 -0.00032916875 0.0017331324 0.004353889
000070 a6 c5 dc bb 5b f1 b9 3b 6e 4d f9 bb ef 38 c1 ba
       -0.0067374287 0.0056745238 -0.0076081073 -0.0014741699
000080 00 ff 03 bc 3c 46 06 39 f6 2b 9f bb 44 07 b9 3b
       -0.008056402 0.000128054 -0.0048575355 0.005646618
000090 9b d9 ad bb 32 6a a5 3b 66 40 ac bb cc 0c db bb
       -0.0053054816 0.00504806 -0.0052567003 -0.006684875
0000a0 1b aa 54 bb cd b9 cc ba 1b 39 80 3b 73 98 0d bc
       -0.0032450024 -0.0015619338 0.0039130575 -0.008642304
0000b0 21 a0 0e bc 0d a1 e1 3a a6 66 0b bb 08 f7 82 bb
       -0.00870517 0.0017214135 -0.00212709 -0.0039967336
0000c0 3b 89 af 3b 89 3a 5a bb 09 b2 28 3c 4b b8 b0 bb
       0.0053569353 -0.003329905 0.010296353 -0.005393063
0000d0 89 23 a8 bb b9 e3 b8 bb f7 34 bb bb c9 b7 1d bc
       -0.0051311892 -0.005642381 -0.005713101 -0.009626337
0000e0 76 53 09 bb a8 4f ac bb cf 3c 24 3b b1 9a 53 ba
       -0.0020954288 -0.005258519 0.0025060659 -0.0008072062
0000f0 d6 64 b5 3b 30 00 4b bc 18 5b 0d 3b de 1b d7 bb
       0.005535702 -0.012390181 0.0021569189 -0.0065646013
000100 e3 59 d8 3a be f8 c1 3a b3 65 fa ba aa 1b 15 bc
       0.001650628 0.0014798862 -0.0019103795 -0.009100834
000110 7b f7 ed 3a c6 6f 81 3b d8 a1 81 bb 73 d5 6d 3b
       0.001815542 0.003950092 -0.003956061 0.0036290556
000120 17 a2 21 3a 1f 08 be bb d3 db 21 bb 6c 2e 5b 3c
       0.0006165816 -0.005799308 -0.0024697676 0.013377767
000130 e6 2b d8 b9 6a f8 c3 3b 1f 0e 87 3b 23 7e 19 3a
       -0.00041231437 0.005980541 0.0041215564 0.00058552827
000140 28 42 e1 bb 47 69 c5 3b dd b2 0d 3b 45 a9 f2 3b
       -0.0068743415 0.006024513 0.0021621503 0.0074054324
000150 73 b9 78 bb ca 11 aa 3b 60 ea 3c 3b 0d 26 2c 3b
       -0.0037952333 0.005190109 0.0028826222 0.0026267797
000160 42 9b a3 3b 37 57 d8 3b 2c f5 03 3b 7a b8 27 3a
       0.0049928734 0.0066021937 0.0020135147 0.00063980336
000170 82 c0 d1 3a c6 08 99 3b 5b 97 ab bb fb 9d a8 3b
       0.0016002806 0.0046702353 -0.005236549 0.005145786
000180 17 ae e0 bb 0d da df 3a fa ce 4d bc 62 b6 15 3b
       -0.0068566906 0.0017078534 -0.012561554 0.0022844304
000190 13 9c cf bb 40 86 92 ba a2 a6 a2 bb 9e ef a1 b9
       -0.006335744 -0.0011178926 -0.004963712 -0.00030886842
0001a0 82 a7 3a 3a 35 b6 dd bb 6d 56 99 bb 5f 4d 03 3a
       0.00071202975 -0.0067661055 -0.004679492 0.00050087826
0001b0 04 75 b4 bb 77 43 66 bb 16 b5 91 3b 71 7f a6 bb
       -0.0055071134 -0.0035135427 0.004446636 -0.00508111
0001c0 70 c4 b8 bb 56 8b e4 3a c8 9a 84 bb 48 d8 b1 bb
       -0.0056386515 0.0017436545 -0.0040467717 -0.005427394
0001d0 dc 4e 12 3b 7d 67 64 bb f9 dd c9 3b 46 ef 9d 3b
       0.0022324836 -0.0034851723 0.0061604944 0.0048197834
0001e0 73 29 42 3c 24 a8 12 3b e7 c9 d6 3b 71 de ea 3b
       0.011850703 0.0022378052 0.0065548304 0.0071676304
0001f0 0d 3f b5 3b ea dd 5b bb 45 7f bd b9 a3 57 c7 3b
       0.005531198 -0.003354902 -0.00036143712 0.006083445

network_body.linear_encoder.seq_layers.2.weight f4 [128, 128]
000000 7e 69 87 3c 66 f4 84 3c 83 f8 5d bc dc 56 70 3d
       0.016529795 0.01622982 -0.013548019 0.058676586
000010 2f 40 4b 3d 89 62 5e 3d 76 23 46 3d 30 96 dd 3d
       0.049621757 0.05429319 0.048373662 0.108196616
000020 7c 14 8a bd b8 a6 61 bd c8 18 07 be f9 6d 4e bd
       -0.06742188 -0.055090636 -0.13193047 -0.050397847
000030 0f 64 1a bd 55 e8 66 bc 93 75 ff bc 01 17 b0 3d
       -0.03769308 -0.014093478 -0.031183993 0.08598138
000040 f1 4f 58 be b7 94 16 be 8b b7 3c 3d 0a 17 9f bc
       -0.21124245 -0.14705168 0.046073478 -0.019420166
000050 30 05 a1 3c ba 16 9e bc fc 74 1a 3d f2 48 5a 3c
       0.019655794 -0.019297946 0.03770922 0.013323056
000060 28 db 24 3d 70 2f 2d 3c 1b 13 79 bd fe 8d 2d 3e
       0.040248066 0.010570392 -0.060809236 0.16948697
000070 a7 bb 49 be 08 26 27 3d b2 c5 f6 bd 97 92 d7 3c
       -0.1970049 0.040807754 -0.12049426 0.026315017
000080 56 fa 7f 3d ef 39 39 3e e4 dd ce bb 3c 36 54 bc
       0.0624946 0.18088506 -0.0063130725 -0.012952384
000090 dd 1c c3 bd b3 52 09 3e 52 9f 06 be e9 1b 4d bc
       -0.095269896 0.13410453 -0.13146713 -0.012518861
0000a0 41 c8 af 3c ef 4f 3e 3c a1 11 12 3e af 77 06 be
       0.021457793 0.011615737 0.14264537 -0.13131593
0000b0 c7 7f 01 bd e2 d5 b2 3c 90 c9 45 3c 4f 65 eb bd
       -0.031616 0.021830503 0.012071982 -0.114939325
0000c0 5e 12 04 3d 03 eb e7 bb 0c 9a 19 be 13 82 1b be
       0.03224408 -0.007077576 -0.1500017 -0.15186338
0000d0 88 56 f7 bd 3c 6f d7 3d b3 e5 eb bd bd 64 0c be
       -0.120770514 0.10519263 -0.11518421 -0.13710304
0000e0 f1 1a 1f be cd 3e 03 3e d7 a0 cc bc 32 b5 53 3d
       -0.15537621 0.12816925 -0.024979038 0.051686473
0000f0 74 2b 62 bd 84 be 9d 3d 2d f3 a6 3d fb 92 5b 3d
       -0.05521722 0.077023536 0.08151851 0.05360697
000100 3a 54 4c be 67 b7 1e bd 6a 6a e6 3d 77 a7 77 3e
       -0.19954005 -0.038749125 0.112507656 0.24184977
000110 fb 05 54 bd 3a 27 79 bd d8 17 be bd 97 84 5c 3d
       -0.051763516 -0.060828425 -0.092818916 0.053837385
000120 83 c6 b7 3c 1a f4 e5 bc 55 4a 20 3e 54 d8 38 bc
       0.022433525 -0.028070498 0.15653355 -0.011282045
000130 36 bf 9b bc 84 d5 06 3d 7b fa 11 bd 53 51 b1 bb
       -0.019012075 0.032918468 -0.035639267 -0.005411306
000140 45 b6 9e 3d 67 d4 50 3c f8 92 27 bd b9 23 22 bd
       0.07749609 0.012745953 -0.040911645 -0.03958485
000150 19 bf bc 3b 1b 46 7f bc ad a7 2b 3e d8 c5 f3 bd
       0.0057600853 -0.015580679 0.16763182 -0.1190297
000160 a7 e9 80 bd 62 27 31 bd a1 31 69 3e da b0 a3 3d
       -0.06294566 -0.04325045 0.22772838 0.07992716
000170 80 b5 c4 3d 32 97 0b 3e 41 70 74 3d 87 e5 1e 3d
       0.09604931 0.13631895 0.059677366 0.038793113
000180 df ee 2a 3d 3a 0c 86 3c bb 10 0e be 28 61 15 3e
       0.04173171 0.016363252 -0.1387357 0.14587843
000190 e9 05 47 3e 7e 46 1f 3e f1 4f 15 bd 2c 81 ad bc
       0.19435848 0.15554234 -0.03645319 -0.021179758
0001a0 20 a5 83 bd 3f 36 25 bc 5d 27 f3 3d 65 2b 5d be
       -0.064279795 -0.010083734 0.11872742 -0.21598585
0001b0 f9 ed 02 3d 65 dd 1c bd d0 58 03 3c 9d 8a 1b 3e
       0.03196523 -0.038297076 0.00801678 0.15189596
0001c0 95 23 f5 3d b7 4c 8d 3d 72 d4 81 3d 1d 39 33 bd
       0.11969677 0.06899398 0.06339349 -0.04375564
0001d0 75 99 92 bd 1c d1 77 bc 51 97 cc 3d fc 21 ed 3d
       -0.07158176 -0.015125539 0.09989799 0.11578748
0001e0 01 45 92 bc a3 a3 2c be 78 b4 1e 3c 03 5c 01 bd
       -0.01785517 -0.16859297 0.009686582 -0.03158189
0001f0 52 13 66 3d 3d d1 24 bd 24 b0 a7 3d 68 26 ee 3c
       0.05617077 -0.040238608 0.08187893 0.029071048
000200 32 4e 3c 3d 5b e5 9f 3d a4 3c 32 bc bb 38 2d bc
       0.04597301 0.07807418 -0.010878716 -0.010572608
000210 04 b7 2b 3d c3 f3 c8 3c ab 5e e5 3c d2 7f d3 bd
       0.041922584 0.024530297 0.027999243 -0.10327114
000220 fe 70 fc bd 4b 16 aa 3d 12 66 2c bd a9 6d 15 be
       -0.12326239 0.08305033 -0.04208953 -0.14592613
000230 66 e1 25 bd 69 0a 9e 3c 5a ef 22 3c 0b 57 c7 bd
       -0.04049816 0.019292073 0.009944761 -0.09733399
000240 d5 78 3b 3e 47 aa 87 3e 20 d1 96 bd fd d2 31 bc
       0.18307813 0.264971 -0.07364106 -0.010853526
000250 bf ac 79 bc 61 7b 56 ba 30 db a3 3d 7f d2 5f 3d
       -0.01523894 -0.0008181837 0.08000791 0.054644104
000260 30 28 b2 3d 7a 81 19 bd 0e 1e 19 3d ca 83 4f bd
       0.086990714 -0.037476994 0.037382178 -0.050662793
000270 5b e7 0e 3e cc 73 fb 3d 8e 3d 39 3d 48 01 2e 3e
       0.13955443 0.12277946 0.04522472 0.16992676
000280 2e 18 d6 bc c9 66 82 bc 60 ae 87 bc bb 10 0e be
       -0.026134577 -0.015918152 -0.01656264 -0.1387357
000290 18 63 ca 3d af 76 d8 3d 30 6b 75 bd 94 5e 1f be
       0.09882182 0.10569512 -0.059916675 -0.15563422
0002a0 70 ad c4 bd ec 91 0e 3e 75 d1 f2 bc 95 0e 93 bd
       -0.09603393 0.13922852 -0.029640893 -0.07180516
0002b0 fe ed 2a 3d 04 04 11 3e 1a 5f d9 bb 1e 10 e3 3a
       0.041730873 0.14161688 -0.0066336514 0.0017323529
0002c0 a7 37 d3 bd d4 07 d8 3d 13 c5 fa bc 81 ba 10 3e
       -0.10313349 0.10548368 -0.03061155 0.14133646
0002d0 dd be 32 3c 16 33 e2 3d 0b c1 49 be ff 99 8d 3d
       0.010909763 0.110449 -0.19702546 0.06914138
0002e0 8a 78 31 bd 70 60 fd bd ec 10 2d bd 5d 83 64 3d
       -0.043327846 -0.123719096 -0.042252466 0.05578934
0002f0 bb 30 f8 bd 46 6d e4 3d 98 06 0e 3d 9a 37 d6 bc
       -0.121186696 0.11153655 0.034674257 -0.02614956
000300 99 f5 7f bd 9f 6d 50 3d ed 61 8c bd 30 6b 53 3d
       -0.06249008 0.050885793 -0.06854615 0.051615894
000310 60 eb 0c bc fe 9e 81 bd 33 58 00 3d 05 45 67 3c
       -0.00860104 -0.063291535 0.031334113 0.014115577
000320 28 75 1c 3e 77 f8 f3 bc b9 f7 48 3d c4 d2 87 3d
       0.15279067 -0.029781563 0.04906437 0.06631997
000330 c0 c7 93 3d 6e 93 c0 bc b5 30 e4 3d ab 37 c0 bd
       0.07215834 -0.0235078 0.11142103 -0.09385618
000340 90 cc 62 3d 63 60 fe bd 17 e7 0b 3b b0 fe 82 3e
       0.055370867 -0.12420728 0.0021347457 0.25584936
000350 1a 65 6d 3d 6a 79 a3 bd 88 d9 6b 3d a0 cd 36 bc
       0.057957746 -0.07982142 0.0575805 -0.011157423
000360 2d 00 27 3d 59 68 56 ba b0 2f 9e 3d 74 2c c1 bd
       0.040771652 -0.0008179001 0.077239394 -0.09432307
000370 92 01 d7 bd 53 98 11 bd 78 f6 13 3e 1a f3 fe bc
       -0.104983464 -0.03554566 0.14449489 -0.03112178
000380 82 cb 12 3c 19 ce eb bd 3b 99 a1 3d 22 23 5f bd
       0.008959653 -0.115139194 0.078905545 -0.054476865
000390 2b 99 39 be 37 83 1b bd 65 e3 24 bd 94 d6 02 3e
       -0.18124835 -0.037966933 -0.040255923 0.12777168
0003a0 d2 bf ac 3a ff 32 d7 bc d7 d6 63 3e d4 54 af 3d
       0.0013179726 -0.026269434 0.22249924 0.085611016
0003b0 ee f5 6e bd 3b 87 2d bd e9 07 1f 3d e4 72 45 b9
       -0.058340006 -0.042365294 0.038825903 -0.00018830184
0003c0 53 87 2a 3c d7 40 d0 3b 4f 8f a0 bc 5f 21 76 3c
       0.01040824 0.0063553858 -0.019599585 0.015022605
0003d0 ee 3d 8a be a1 d2 1d 3c 87 c5 c2 bd ba 36 8d bd
       -0.27000374 0.009632737 -0.095103316 -0.06895204
0003e0 12 e0 bd 3d b4 37 16 bd 66 fe ab 3b 9e 6d 0d 3d
       0.09271254 -0.036674216 0.0052488325 0.034528367
0003f0 ca 39 ac bd 40 4a 60 bd 81 88 c9 3d 9c 55 02 bd
       -0.0840946 -0.05475831 0.09840489 -0.031819925
